Weights/cnn10.pt (torch, 719675 bytes, 8 tensors)

encoder.0.weight f4 [128, 13, 3]
-0.11944573 -0.088080466 0.12195752 -0.15007223 0.15808204 0.06488538 0.08674111 0.16147959
-0.051827397 0.14545318 0.13474217 -0.018501572 -0.06188243 0.16234034 -0.1205575 0.008523141
-0.050150305 0.0039011317 0.076992236 -0.12613966 -0.14292885 -0.07284078 -0.027624665 0.12833674
0.0829182 0.09854082 -0.076447465 0.052275725 0.16649179 0.04332894 -0.16092685 0.041252475
0.026759647 0.017769268 -0.046750825 0.014534835 -0.100200854 -0.21697173 -0.0330352 -0.0142847905
-0.1180562 0.05500639 0.14091122 -0.11090118 -0.14250024 -0.051160812 -0.047808398 0.14276557
-0.11728568 0.022741035 0.11403528 -0.033077884 0.20373414 0.11093699 0.12897556 0.015723214
-0.036923043 -0.15559831 0.13265298 -0.009783114 -0.043288983 0.14572214 0.0196138 0.08413487
-0.09459017 0.020483796 0.034661785 0.09837409 0.06321863 0.14521687 -0.16532703 -0.0064664725
-0.11944387 -0.035213422 0.06829536 0.17324027 0.12473669 0.22559384 -0.17117599 -0.056384888
-0.01031065 0.010831144 0.0556968 0.065539844 0.11541518 -0.15434185 -0.06001485 0.19975847
0.1716503 0.0647442 0.2028998 0.12816358 0.07335915 0.114114314 0.109170884 0.05186458
-0.13406186 0.033266913 0.15764228 0.15699579 -0.105164446 -0.13976689 0.15800403 -0.09450662
0.09003216 -0.055352245 0.07582765 -0.13205825 0.0112090465 -0.0069478108 -0.065867364 -0.02758818
0.14382751 -0.09671252 0.12245707 0.09061413 0.021000903 0.09720782 -0.11873291 0.102105826
-0.13700849 0.08256217 0.108271584 -0.14073665 0.11819677 -0.0052118176 -0.039368864 0.09927982
-0.02557391 -0.0216204 -0.18931495 -0.16917512 0.12143874 0.08316084 0.0301859 0.113810465
0.094508186 0.035525482 0.09867883 -0.124984615 -0.08978475 -0.117140755 0.016233694 0.15252578
0.047086686 -0.012350173 0.15434398 0.052839376 -0.012228044 0.17623243 -0.04423389 0.028217515
0.12122583 -0.08693184 -0.13950816 -0.11100216 -0.12807867 -0.0005099547 0.18094419 0.100063995
0.112704225 -0.07372897 0.04448176 -0.101421416 0.044290423 -0.042351298 0.042534593 -0.07316218
-0.056508373 -0.06008122 -0.0061893016 0.15312459 0.057129163 0.1028851 0.08732672 0.14509328
0.05294116 -0.09017595 0.022824503 0.0874363 0.12831244 -0.06966632 0.123232484 -0.12568067
0.010984998 -0.1084933 0.11062034 0.11540464 -0.07850316 -0.14787059 -0.05359856 -0.07205401
-0.09167469 0.0220626 -0.09229942 0.013058041 0.06456253 -0.14717545 -0.12223822 0.16132341
0.09990951 -0.037751485 -0.03498459 -0.12882169 0.044979174 -0.009168132 -0.074780695 0.09683183
0.17699629 -0.013505093 -0.027416354 -0.123331256 0.14800279 -0.12090651 -0.090079345 -0.12084196
0.0020664323 0.12871107 0.13167462 -0.002937098 0.16536546 -0.08440143 -0.1364529 0.024605127
0.056907546 0.069872566 -0.043264292 -0.13842095 0.07918573 0.024378091 -0.049093608 0.02190601
0.10011126 0.016167391 -0.1791188 -0.17764562 -0.031560764 -0.03662253 0.14278625 0.16002354
0.10999856 -0.09153249 -0.11391959 0.035957947 -0.13873361 -0.20340987 0.025491808 0.11115389
0.23536037 -0.04040651 -0.10503194 -0.13437566 0.14672185 0.13240233 0.016635241 -0.032039676
00000000: f69f f4bd 8863 b4bd ddc4 f93d 89ac 19be
00000010: 42e0 213e a0e2 843d 53a5 b13d e85a 253e
00000020: f748 54bd aef1 143e daf9 093e 9c90 97bc
00000030: 6e78 7dbd 8c3c 263e dae6 f6bd a5a4 0b3c
00000040: 686a 4dbd 21aa 7f3b 1bae 9d3d c12a 01be
00000050: f15b 12be 8c2d 95bd 1f4d e2bc b56a 033e
00000060: 04d1 a93d c5cf c93d 7d90 9cbd 121f 563d
00000070: d37c 2a3e b079 313d 02ca 24be 5bf8 283d
00000080: 0c37 db3c db90 913c cb7d 3fbd 8423 6e3c
00000090: 1b36 cdbd d62d 5ebe eb4f 07bd c10a 6abc
000000a0: 73c7 f1bd 614e 613d 084b 103e 2820 e3bd
000000b0: 95eb 11be 008e 51bd bdd2 43bd 2331 123e
000000c0: 7933 f0bd 684b ba3c 548b e93d ad7c 07bd
000000d0: af9f 503e ef32 e33d 2b12 043e f8cd 803c
000000e0: 9e3c 17bd 2a55 1fbe 2fd6 073e 5b49 20bc
000000f0: ca4f 31bd 2f38 153e 1fad a03c e74e ac3d
00000100: 7eb8 c1bd a2cd a73c 84f9 0d3d 5b78 c93d
00000110: c578 813d bbb3 143e 7d4b 29be b4e4 d3bb
00000120: fd9e f4bd f33b 10bd 70de 8b3d e665 313e
00000130: f375 ff3d 1202 673e c248 2fbe d7f3 66bd
00000140: 00ee 28bc 1c75 313c 5422 643d c139 863d
00000150: cb5e ec3d ca0b 1ebe 22d2 75bd 7c8d 4c3e
00000160: 19c5 2f3e 9b98 843d f7c4 4f3e 503d 033e
00000170: 523d 963d c4b4 e93d fc94 df3d f46f 543d
00000180: 8347 09be e342 083d fa6c 213e 81c3 203e
00000190: 7560 d7bd 0d1f 0fbe cfcb 213e b08c c1bd
000001a0: c862 b83d 09b9 62bd 874b 9b3d 473a 07be
000001b0: 26a6 373c 76aa e3bb 78e5 86bd 9b00 e2bc
000001c0: 8547 133e 3711 c6bd c6ca fa3d e793 b93d
000001d0: 160a ac3c e514 c73d 3d2a f3bd dc1c d13d
000001e0: f44b 0cbe 5b16 a93d 7ebd dd3d 451d 10be
000001f0: 2611 f23d e5c7 aabb 3f41 21bd 3853 cb3d
00000200: 6080 d1bc 441d b1bc c7db 41be 3e3c 2dbe
00000210: e0b4 f83d 3b50 aa3d 6c48 f73c 7615 e93d
00000220: 828d c13d 2b83 113d 2018 ca3d eff7 ffbd
00000230: 11e1 b7bd 7ee7 efbd 86fc 843c b82f 1c3e
00000240: f8dd 403d 6158 4abc 590c 1e3e 1a6e 583d
00000250: 2258 48bc 4676 343e 982e 35bd 6b28 e73c
00000260: 3f45 f83d 5209 b2bd 3adb 0ebe 1a55 e3bd
00000270: 0e27 03be 7bae 05ba 6f49 393e 5aee cc3d
00000280: 79d1 e63d 37ff 96bd 8232 363d 08b6 cfbd
00000290: e069 353d 8e78 2dbd c138 2e3d 0ed6 95bd
000002a0: 5375 67bd ba17 76bd a0cf cabb b1cc 1c3e
000002b0: 4500 6a3d 6cb5 d23d 5ad8 b23d 5593 143e
000002c0: d4d8 583d 2bae b8bd 74fa ba3c ce11 b33d
000002d0: 5664 033e 37ad 8ebd 5061 fc3d 6fb2 00be
000002e0: 6cfa 333c bc31 debd eb8c e23d 4559 ec3d
000002f0: 44c6 a0bd 636b 17be 2a8a 5bbd 0e91 93bd
00000300: f1bf bbbd a0bc b43c 7a07 bdbd 65f1 553c
00000310: 5c39 843d 29b5 16be 0858 fabd f731 253e
00000320: 5b9d cc3d 4da1 1abd 004c 0fbd d5e9 03be
00000330: 153c 383d ef35 16bc 9f26 99bd c44f c63d
00000340: 843e 353e 7744 5dbc 4398 e0bc 1995 fcbd
00000350: 0b8e 173e d59d f7bd 857b b8bd fd7b f7bd
00000360: fb6c 073b d6cc 033e b6d5 063e 547c 40bb
00000370: 9055 293e a8da acbd 4fba 0bbe b190 c93c
00000380: e317 693d 5919 8f3d e635 31bd 39be 0dbe
00000390: 212c a23d 90b4 c73c 6116 49bd 3c74 b33c
000003a0: 2207 cd3d 7a71 843c eb6a 37be bce8 35be
000003b0: dc45 01bd 8201 16bd 8f36 123e 36dd 233e
000003c0: ed46 e13d 6375 bbbd ad4e e9bd a448 133d
000003d0: 2f10 0ebe ad4a 50be 32d4 d03c a7a4 e33d
000003e0: 4f02 713e 4c81 25bd fc1a d7bd c699 09be
000003f0: 413e 163e 7a94 073e a146 883c 093c 03bd

encoder.0.bias f4 [128]
0.047193818 0.03849056 0.14037365 -0.014673534 0.013790041 0.061891206 -0.07637244 0.07369525
-0.1346202 -0.063100725 -0.080458626 -0.0031064355 -0.13075164 -0.027548853 -0.14524601 -0.047919348
-0.015380637 -0.03233812 0.003571433 0.16339837 -0.052162793 0.048894614 0.13305902 0.1889274
-0.029045697 -0.026942428 0.02683462 0.086673714 0.120549396 0.024392564 -0.08973524 -0.11943319
-0.042656187 0.1546733 -0.10199746 0.025519319 0.013445081 0.039658003 0.106645 0.005109922
0.11728628 0.018475674 0.1299591 -0.14540978 0.03346655 -0.16191259 -0.07150079 0.09840484
-0.06766845 -0.018015336 0.0831672 0.021595616 -0.011820449 0.0041659353 0.12125584 0.14866404
-0.10720866 -0.005248314 -0.10806144 0.08552985 0.09748722 0.13694327 0.15631054 -0.13306366
-0.08300259 -0.030511668 0.11679324 -0.14342135 0.0726231 0.013301292 -0.014025118 -0.02507254
-0.008418786 -0.0054704426 -0.15584616 0.1329612 0.042675834 -0.122314274 0.08638389 -0.13269725
0.047099378 -0.051603474 0.039205886 -0.08437834 -0.06038838 -0.064068966 0.09303081 0.14135613
0.12759022 0.06011029 0.09995628 -0.026414666 -0.106506586 0.13135435 0.064314276 -0.022925163
-0.11438229 0.0093630925 0.06883019 -0.0111994 0.102333 0.07032397 -0.11994644 0.0693506
0.14301106 0.0018416075 -0.040604904 0.06382489 -0.08353222 0.09483695 0.086801335 -0.13400838
0.0030936366 0.1187972 0.04091345 0.11565659 0.100146145 0.08366685 0.012046034 0.022039847
0.05395028 -0.017968666 -0.04612561 -0.13145567 0.15385115 0.14529943 -0.1520731 0.08755648
00000000: 4e4e 413d 47a8 1d3d 1cbe 0f3e 4369 70bc
00000010: a0ef 613c a281 7d3d 2769 9cbd 89ed 963d
00000020: e1d9 09be f43a 81bd 7ec7 a4bd 5795 4bbb
00000030: c2e3 05be 22ae e1bc 5fbb 14be 1447 44bd
00000040: 11ff 7bbc fa74 04bd b40e 6a3b e751 273e
00000050: a7a8 55bd b845 483d a040 083e 2f76 413e
00000060: 3ef1 edbc 5eb6 dcbc 47d4 db3c fd81 b13d
00000070: 9ae2 f63d ead2 c73c 1cc7 b7bd 6399 f4bd
00000080: 41b8 2ebd ad62 1e3e 0be4 d0bd e40d d13c
00000090: c248 5c3c 6e70 223d b268 da3d 2271 a73b
000000a0: ca33 f03d 4c5a 973c 0014 053e 4de6 14be
000000b0: 3914 093d 6acc 25be 026f 92bd 7a88 c93d
000000c0: c295 8abd e694 93bc 9153 aa3d 4ae9 b03c
000000d0: 8eaa 41bc 6682 883b fb54 f83d 633b 183e
000000e0: 3790 dbbd 0cfa abbb 514f ddbd 462a af3d
000000f0: 61a7 c73d db3a 0c3e df0f 203e d741 08be
00000100: 43fd a9bd 9bf3 f9bc 4b31 ef3d 0cdd 12be
00000110: 6bbb 943d aaed 593c 9cc9 65bc ed64 cdbc
00000120: f3ee 09bc 6641 b3bb 2396 1fbe fb26 083e
00000130: dbcc 2e3d e87f fabd 09ea b03d cae1 07be
00000140: 47eb 403d 2a5e 53bd 5a96 203d 8dce acbd
00000150: ce59 77bd 9736 83bd f086 be3d a9bf 103e
00000160: 03a7 023e 3536 763d e1b5 cc3d 9263 d8bc
00000170: 2020 dabd c181 063e 34b7 833d 8dcd bbbc
00000180: 4341 eabd a867 193c d8f6 8c3d b07d 37bc
00000190: f793 d13d 0306 903d 7ba6 f5bd b007 8e3d
000001a0: 7e71 123e 1862 f13a 5451 26bd a0b6 823d
000001b0: f112 abbd e039 c23d e6c4 b13d 7e39 09be
000001c0: 9cbe 4a3b f24b f33d dd94 273d 5ddd ec3d
000001d0: 6c19 cd3d 8759 ab3d bb5c 453c e98c b43c
000001e0: f8fa 5c3d 0633 93bc 35ee 3cbd 519c 06be
000001f0: 288b 1d3e 60c9 143e 0db9 1bbe d050 b33d

encoder.3.weight f4 [64, 128, 3]
-0.040351298 0.005513766 0.03912214 -0.039716363 0.041582856 -0.02588756 -0.017441679 0.03270499
0.03788866 -0.003690343 -0.025798943 -0.03879195 0.0142080365 -0.026710162 -0.043744344 0.0058984645
0.019619418 0.014399492 -0.019552413 -0.009143576 0.03642541 -0.033069823 0.043552563 -0.045308445
-0.03113063 -0.052827496 -0.02939367 -0.00501152 -0.011451483 -0.023698725 -0.03843017 0.0078957565
-0.020204058 0.009289549 -0.022473935 0.027748087 -0.019839423 0.031979006 0.021450233 0.016723994
0.0015671453 -0.001563382 0.029788602 0.014783425 -0.04769836 -0.029492047 0.035920747 -0.034025066
-0.036661226 -0.03865746 0.022177845 -0.0038864526 -0.026110765 0.014063143 -0.00024700066 0.024343835
-0.017064381 0.011642537 -0.009321732 0.050587293 0.04145688 0.0014144621 -0.051078673 -0.028935337
-0.020889193 -0.041242253 0.0113139665 0.04485248 0.034862444 0.034241956 0.046440057 -0.038036607
0.045140646 0.034699075 0.023284083 0.034477115 0.027267678 -0.021198507 -0.023681749 -0.025963375
-0.0027124358 -0.030022258 -0.0430413 -0.030535167 -0.045773633 0.0070911786 0.03787731 0.04705344
0.035365347 -0.04539067 0.005543882 0.031364076 -0.0016959473 -0.0069446303 0.029728843 0.01899325
0.028315812 0.040445242 -2.4205745e-05 -0.0055866768 0.017700708 0.0036535722 -0.019905291 0.029998336
-0.039763667 0.011286898 0.03503121 -0.013130117 0.03968653 -0.02026188 -0.018681146 -0.017961131
0.042165846 -0.0333231 -0.027368981 0.019419959 0.033812147 -0.005997188 -0.011333395 0.04873949
-0.015464113 0.00094488176 0.050726607 -0.02964157 -0.009665317 -0.010382294 -0.048725963 0.04692132
-0.027108217 -0.028628297 -0.015406648 0.0150844185 0.04956584 0.03655991 0.042471293 0.028688254
-0.0380011 -0.010228396 -0.020524306 -0.037316017 0.021001808 -0.030086074 0.026494335 0.037925154
-0.015534717 0.029648203 0.0506892 0.0086997235 -0.02803008 -0.038746674 0.00019406033 -0.030769156
0.022253688 0.008251945 -0.030746529 0.03660746 0.050981823 -0.0379365 -0.028060012 -0.043129794
0.002321296 0.019451931 0.027718991 -0.011797938 0.01970381 0.022014935 0.015021895 -0.029209202
-0.042334784 -0.014795013 -0.0060409727 0.0456398 0.007180352 0.039908234 0.04124469 0.010535692
-0.036529023 0.027261676 0.031697392 -0.035522226 -0.030285476 0.0063519664 -0.016573856 0.01308089
0.031974114 -0.02423582 -0.02869347 0.0012912983 -0.033754963 -0.03051522 0.018240755 0.022003513
-0.031362038 -0.048131377 -0.028895808 -0.017077165 -0.0068252715 -0.027926968 0.00578148 0.0032836085
-0.037755523 -0.013937831 -0.012823144 0.0265323 -0.048551977 0.0353009 -0.0363406 -0.034813922
0.02659545 -0.031951584 -0.03967693 0.03995243 -0.032249693 -0.02037158 0.036057133 0.019897545
-0.029525137 -0.03493609 -0.004706522 0.03763545 -0.010117033 0.005962274 0.029674746 0.029031266
-0.025429914 0.030389374 -0.040900808 -0.04660187 -0.023680773 -0.037220325 -0.04970639 0.009484057
0.030851094 -0.04881657 0.025653461 0.040049188 0.012890697 0.041920815 0.0020609698 0.0071550747
-0.017275266 0.026245223 -0.04291715 0.001545016 0.015912453 -0.020907521 0.021637818 -0.051747512
0.040247362 0.032507952 -0.017970407 -0.05218583 -0.0027125333 0.008170776 0.021970913 0.008629096
00000000: 6747 25bd d2ac b43b 893e 203d a0ad 22bd
00000010: c952 2a3d 2612 d4bc dae1 8ebc abf5 053d
00000020: 2431 1b3d aed9 71bb 4e58 d3bc 4fe4 1ebd
00000030: d3c8 683c 45cf dabc 452d 33bd e847 c13b
00000040: e7b8 a03c d9eb 6b3c 622c a0bc f0ce 15bc
00000050: d032 153d 3974 07bd 2c64 323d 5995 39bd
00000060: aa05 ffbc a561 58bd feca f0bc ad37 a4bb
00000070: 009f 3bbc d423 c2bc f468 1dbd 345d 013c
00000080: fb82 a5bc 3133 183c 421b b8bc f54f e33c
00000090: 4986 a2bc 6bfc 023d 66b8 af3c c200 893c
000000a0: ac68 cd3a 65ea ccba 3a07 f43c 2e36 723c
000000b0: 5b5f 43bd 4e99 f1bc a221 133d de5d 0bbd
000000c0: 152a 16bd 4957 1ebd 50ae b53c dbb3 7ebb
000000d0: 3ee6 d5bc 1969 663c de7f 81b9 b96c c73c
000000e0: 9aca 8bbc 57c0 3e3c 2eba 18bc 9f34 4f3d
000000f0: b0ce 293d 7965 b93a df37 51bd cd09 edbc
00000100: d01f abbc a3ed 28bd 375e 393c 3cb7 373d
00000110: eccb 0e3d 4b41 0c3d ee37 3e3d 46cc 1bbd
00000120: 66e5 383d 9e20 0e3d 43be be3c e037 0d3d
00000130: 7760 df3c 7ea8 adbc 3a00 c2bc 25b1 d4bc
00000140: 1fc3 31bb 3df1 f5bc 134c 30bd e324 fabc
00000150: 227d 3bbd 1e5d e83b 3d25 1b3d 1cbb 403d
00000160: 41db 103d 91eb 39bd 74a9 b53b 9e77 003d
00000170: 8c4a deba c88f e3bb e789 f33c bb97 9b3c
00000180: 90f6 e73c e9a9 253d 710d cbb7 7110 b7bb
00000190: 1301 913c c570 6f3b 6c10 a3bc 12bf f53c
000001a0: 3adf 22bd aeec 383c e37c 0f3d b41f 57bc
000001b0: 588e 223d 3efc a5bc 3409 99bc 3923 93bc
000001c0: 18b6 2c3d ce7d 08bd ea34 e0bc 9b16 9f3c
000001d0: 9b7e 0a3d 0f84 c4bb b4af 39bc 0fa3 473d
000001e0: 315d 7dbc f1b1 773a b4c6 4f3d e1d2 f2bc
000001f0: 475b 1ebc 7f1a 2abc e094 47bd 9230 403d
00000200: 0d12 debc e485 eabc 2a6c 7cbc a324 773c
00000210: 8d05 4b3d d8bf 153d 61f6 2d3d a103 eb3c
00000220: 0ba7 1bbd 0195 27bc 9722 a8bc aed8 18bd
00000230: fc0b ac3c 1277 f6bc a60a d93c 6857 1b3d
00000240: 5385 7ebc cae0 f23c 7b9f 4f3d 4989 0e3c
00000250: 579f e5bc d5b4 1ebd ac7c 4b39 990f fcbc
00000260: 5e4d b63c 2a33 073c 25e0 fbbc b4f1 153d
00000270: 51d2 503d 4e63 1bbd 1cde e5bc dea8 30bd
00000280: e220 183b a859 9f3c f012 e33c 234c 41bc
00000290: e269 a13c aa58 b43c 651e 763c 2348 efbc
000002a0: 3d67 2dbd c866 72bc 5af3 c5bb cdf0 3a3d
000002b0: 2949 eb3b d176 233d 31f0 283d e59d 2c3c
000002c0: 759f 15bd e153 df3c 20d5 013d c17f 11bd
000002d0: 3f19 f8bc 2824 d03b e5c5 87bc 3b51 563c
000002e0: 4af7 023d 338a c6bc 910e ebbc c840 a93a
000002f0: a542 0abd 0efb f9bc a36d 953c b640 b43c
00000300: 7b75 00bd 6825 45bd e7b6 ecbc 69e5 8bbc
00000310: 87a6 dfbb 19c7 e4bc 9272 bd3b cf31 573b
00000320: 89a5 1abd 805b 64bc 2a18 52bc 445a d93c
00000330: 70de 46bd ad97 103d e2d9 14bd 0b99 0ebd
00000340: b3de d93c aadf 02bd 4784 22bd 29a5 233d
00000350: 4118 04bd 4de2 a6bc a5b0 133d 2d00 a33c
00000360: b3de f1bc 2519 0fbd 2b39 9abb a127 1a3d
00000370: e9c1 25bc 2e5f c33b 7418 f33c fad2 ed3c
00000380: 6552 d0bc 23f3 f83c 9b87 27bd 9ae1 3ebd
00000390: 2efe c1bc 5774 18bd ed98 4bbd 0563 1b3c
000003a0: 6fbb fc3c e2f3 47bd 3527 d23c 9e0a 243d
000003b0: 8133 533c 29b5 2b3d 5611 073b 1e75 ea3b
000003c0: dc84 8dbc 3900 d73c e5c9 2fbd 2282 ca3a
000003d0: d55a 823c 4046 abbc cb41 b13c 33f5 53bd
000003e0: 6bda 243d 0f27 053d ad36 93bc cfc0 55bd
000003f0: c2c4 31bb b8de 053c 58fc b33c 0d61 0d3c

encoder.3.bias f4 [64]
0.04379994 -0.021268582 -0.04216372 -0.028988104 -0.021208582 0.03781512 0.042018123 -0.02405092
-0.01627681 -0.048333198 0.02045276 -0.043287728 0.0017914609 -0.008458759 0.015577051 0.045148745
-0.000470568 -0.031003209 0.0001268782 -0.014265706 0.029288543 0.0019326105 0.014600499 -0.027687727
-0.04399723 -0.020666195 -0.012422359 0.008162618 -0.046479527 0.024408929 -0.016579486 -0.009461467
-0.036737483 -0.019572444 -0.006408361 -0.031031491 -0.0071009854 -0.05226426 0.021350943 -0.044826765
-0.009705749 -0.0064456635 0.0054236944 -0.015028613 0.04446426 0.041408736 -0.043306082 -0.017971095
-0.0465594 0.045344666 0.033397514 0.02987336 0.009420928 -0.038172208 -0.014746001 0.02277071
-0.030331362 -0.035329685 -0.0171047 0.039776325 -0.02267535 -0.019816851 -0.02841118 0.016427325
00000000: 9167 333d 733b aebc ddb3 2cbd 7678 edbc
00000010: 9fbd adbc 07e4 1a3d 321b 2c3d 6f06 c5bc
00000020: f256 85bc 08f9 45bd 8c8c a73c 794e 31bd
00000030: 74cf ea3a 9b96 0abc e336 7f3c e4ed 383d
00000040: 91b6 f6b9 71fa fdbc 9c0a 0539 b5ba 69bc
00000050: 87ee ef3c a64f fd3a ee36 6f3c 5fd1 e2bc
00000060: 7036 34bd 274c a9bc 2687 4bbc 80bc 053c
00000070: 5161 3ebd 3cf5 c73c b4d1 87bc 4504 1bbc
00000080: 0b7a 16bd 6456 a0bc 3afd d1bb c135 febc
00000090: 62af e8bb 0c13 56bd 2ce8 ae3c 459c 37bd
000000a0: dd04 1fbc 2536 d3bb 3fb9 b13b 923a 76bc
000000b0: 2820 363d 359c 293d b861 31bd 1e38 93bc
000000c0: 12b5 3ebd 54bb 393d d5cb 083d fab8 f43c
000000d0: 3c5a 1a3c 765a 1cbd 3699 71bc a489 ba3c
000000e0: 7a79 f8bc dcb5 10bd 281f 8cbc 80ec 223d
000000f0: a8c1 b9bc f356 a2bc 90be e8bc 9992 863c

classifier.0.weight f4 [1024, 142]
0.07563974 -0.052285407 0.0314454 -0.022397153 -0.0547238 0.0051052175 -0.04378453 -0.021261677
-0.021129752 -0.041108415 0.0041576456 -0.10773636 0.047637284 -0.050503362 0.027413541 -0.059339367
0.08185556 0.09179455 0.10841533 0.041558687 0.0646176 -0.046046633 -0.075577594 0.031921115
-0.06768329 0.044517603 0.051886395 -0.078456216 -0.0031150307 -0.017279422 -0.00313921 0.03959546
-0.020954287 -0.03795673 0.0047171335 -0.013415198 0.0072734132 0.023538806 0.011008541 0.012662153
0.03296742 -0.012074385 0.082850106 0.015078654 -0.010689683 -0.029242074 -0.08374624 -0.029573651
-0.08975575 -0.062246103 -0.087928675 -0.010819646 -0.01764552 -0.11995987 0.009436726 -0.037443835
0.0026938738 -0.01472505 0.049011007 -0.024586074 0.055741675 0.020881247 -0.051996514 -0.065082155
-0.04693985 -0.027491229 0.048116162 -0.021513762 0.10838034 0.08740099 0.0024487397 0.08349931
-0.03349029 -0.030761132 -0.057251103 0.07023735 0.016204245 -0.020510614 0.08596965 0.05676884
0.002986292 0.020599464 0.05457375 -0.064636976 0.011259607 0.028737612 -0.032631725 -0.05524511
0.015698848 0.053156316 0.05636776 -0.059827 0.043168545 -0.0058536544 0.02963655 0.02113144
-0.07819848 -0.01816709 -0.08146779 -0.10590362 0.022238063 -0.09359749 -0.06815984 -0.044326317
-0.06799379 -0.06515081 -0.0049219434 0.0034706877 0.07467544 -0.0021043574 0.092541374 -0.0069729188
0.058918927 0.09682248 -0.045768727 0.072674245 0.02218719 -0.06297961 -0.017360186 -0.01974813
-0.025421537 -0.08505429 -0.04758674 0.10017457 -0.01881866 -0.014009497 -0.05807013 -0.07438943
-0.085766025 0.05577073 0.00320409 0.016565403 0.0002134605 0.007911315 0.06881496 -0.012975108
-0.098069526 0.034413844 0.0751938 0.07897588 0.047390714 0.097961165 0.06340481 0.05335959
0.03451781 0.016071098 0.0959907 -0.04507162 -0.036269497 -0.038755108 0.09535708 0.007096137
0.054748632 -0.021344362 0.033538852 -0.0416236 0.054800246 0.010993315 0.009158288 0.028681805
0.09118146 0.035009302 0.015959859 0.086057894 -0.033725087 -0.08255398 -0.049222276 0.044240445
-0.017409096 0.09084523 -0.042096745 0.07204292 0.06133361 0.0064027635 0.033219237 0.07352783
0.04314843 -0.043471966 -0.059570704 0.022030942 -0.022843061 0.040774982 0.040219206 -0.08592393
0.016410556 0.03128837 0.016824104 0.06485431 0.034699034 0.076604314 0.0013215328 0.0064997016
-0.058911227 -0.059505843 0.08167796 -0.034526076 -0.048952587 -0.028438373 0.0076678875 -0.060959965
-0.050204348 0.07746525 -0.069311254 0.08642108 0.08829767 -0.044446886 0.070738606 -0.029497417
0.062222406 -0.05160595 0.040346615 -0.03202522 -0.078928806 -0.035855185 0.03750704 0.029625826
0.041052736 0.09804621 0.08818603 -0.020906935 -0.051060952 0.019454714 0.061751172 -0.050901547
-0.015215773 -0.052614424 -0.04347186 -0.04990713 0.088435486 -0.019856554 -0.06552103 0.061645135
0.0040218304 0.061249107 0.075632565 -0.04793951 0.038433596 0.05383994 -0.021290736 0.025206784
-0.061668802 -0.00054293894 0.031573765 0.007889561 0.027108883 0.062701985 0.08016651 0.029191012
0.013733943 0.04792903 0.0816441 0.053801913 -0.03130816 0.094068736 -0.023915911 0.019714093
00000000: 02e9 9a3d 3929 56bd e4cc 003d 3c7a b7bc
00000010: 1026 60bd ab49 a73b 6857 33bd f82c aebc
00000020: 4d18 adbc 4c61 28bd dc3c 883b e1a4 dcbd
00000030: 501f 433d 9ddc 4ebd 5d92 e03c d60d 73bd
00000040: e3a3 a73d c8fe bb3d db08 de3d 7139 2a3d
00000050: 3b56 843d 659b 3cbd 6dc8 9abd b7bf 023d
00000060: 899d 8abd 1758 363d d486 543d a7ad a0bd
00000070: 8b25 4cbb 938d 8dbc 34bb 4dbb d92e 223d
00000080: 53a8 abbc 8478 1bbd 2f92 9a3b 6bcb 5bbc
00000090: d055 ee3b 74d4 c03c 2b5d 343c eb74 4f3c
000000a0: d808 073d a4d3 45bc 51ad a93d 750c 773c
000000b0: c823 2fbc 138d efbc 2683 abbd 7144 f2bc
000000c0: ddd1 b7bd c5f5 7ebd f313 b4bd e244 31bc
000000d0: 568d 90bc 85ad f5bd 7f9c 1a3c b55e 19bd
000000e0: b48b 303b 5641 71bc c4bf 483d bc68 c9bc
000000f0: 6251 643d 260f ab3c 4cfa 54bd cb49 85bd
00000100: 0044 40bd 4935 e1bc 7415 453d a13d b0bc
00000110: 83f6 dd3d 4aff b23d 097b 203b b001 ab3d
00000120: 1d2d 09bd c5fe fbbc 2280 6abd 9ad8 8f3d
00000130: c4be 843c e005 a8bc db10 b03d 7186 683d
00000140: aab5 433b 35c0 a83c b988 5f3d 6460 84bd
00000150: 377a 383c 246b eb3c d8a8 05bd b248 62bd
00000160: df9a 803c 70ba 593d e1e1 663d 280d 75bd
00000170: 80d1 303d 03d0 bfbb 5ac8 f23c d71b ad3c
00000180: 8626 a0bd 26d3 94bc 96d8 a6bd ffe3 d8bd
00000190: 992c b63c 0ab0 bfbd 6397 8bbd 838f 35bd
000001a0: 5440 8bbd ca6d 85bd 4148 a1bb 7a74 633b
000001b0: 70ef 983d 42e9 09bb 5586 bd3d 157d e4bb
000001c0: f954 713d dd4a c63d fd77 3bbd 3cd6 943d
000001d0: e9c1 b53c 74fb 80bd f336 8ebc d5c6 a1bc
000001e0: d440 d0bc f230 aebd 50ea 42bd 5328 cd3d
000001f0: 9729 9abc 1788 65bc f2da 6dbd 7c59 98bd
00000200: 19a6 afbd d96f 643d b6fb 513b 2bb4 873c
00000210: 5ed4 5f39 769e 013c dcee 8c3d 8c95 54bc
00000220: add8 c8bd 88f5 0c3d 35ff 993d 1bbe a13d
00000230: c41c 423d dd9f c83d 62da 813d 968f 5a3d
00000240: 8c62 0d3d 89a7 833c c696 c43d 059d 38bd
00000250: 538f 14bd adbd 1ebd 934a c33d b686 e83b
00000260: 1a40 603d 5fda aebc 0960 093d 827d 2abd
00000270: 3976 603d 4e1d 343c a50c 163c 1bf6 ea3c
00000280: 58bd ba3d ea65 0f3d 40be 823c 1f3f b03d
00000290: 5123 0abd 1012 a9bd 4c9d 49bd 7835 353d
000002a0: 859d 8ebc 100d ba3d a36d 2cbd 3d8b 933d
000002b0: f438 7b3d 46ce d13b e510 083d c295 963d
000002c0: 68bc 303d a90f 32bd 6900 74bd 3c7a b43c
000002d0: 5f21 bbbc ab03 273d e5bc 243d e3f8 afbd
000002e0: 6e6f 863c 3c28 003d b4d2 893c 56d2 843d
000002f0: 9320 0e3d b9e2 9c3d 4837 ad3a 73fb d43b
00000300: e64c 71bd 66bc 73bd c646 a73d 376b 0dbd
00000310: 8282 48bd 97f7 e8bc e742 fb3b 28b1 79bd
00000320: 13a3 4dbd 1aa6 9e3d 0ff3 8dbd 89fd b03d
00000330: 69d5 b43d f00d 36bd 67df 903d 91a4 f1bc
00000340: ecdc 7e3d c360 53bd 7e42 253d e12c 03bd
00000350: 6da5 a1bd e3dc 12bd fba0 193d dcb1 f23c
00000360: ea26 283d 74cc c83d e19a b43d 0545 abbc
00000370: 4a25 51bd 7e5f 9f3c ccee 7c3d 247e 50bd
00000380: 944b 79bc 3982 57bd 8d0f 32bd 6b6b 4cbd
00000390: aa1d b53d 36aa a2bc e42f 86bd 9c7f 7c3d
000003a0: 8fc9 833b 58e0 7a3d 3fe5 9a3d 385c 44bd
000003b0: 8c6c 1d3d 4587 5c3d e969 aebc 757e ce3c
000003c0: 6d98 7cbd 0454 0eba 7e53 013d 3843 013c
000003d0: 7313 de3c e669 803d 572e a43d fd21 ef3c
000003e0: 5504 613c 3b51 443d 0635 a73d 655f 5c3d
000003f0: fc3c 00bd 1ca7 c03d 4deb c3bc 737f a13c

classifier.0.bias f4 [1024]
0.112810306 -0.07343063 0.08304653 0.09788647 0.03162001 -0.07130938 -0.004906795 0.0054772855
0.0302361 0.100749 -0.044067275 -0.08614988 0.074410275 -0.0733693 0.07733321 -0.036281236
0.08969188 0.023875311 0.035889268 0.0669557 -0.03628458 -0.022646956 -0.030417321 0.030939125
0.095657304 0.034432806 -0.082242675 -0.015493558 0.09803218 0.024585247 -0.033562414 -0.042238917
0.01135318 0.027920092 -0.012461563 0.0051392373 0.005491184 -0.060010184 0.066528834 0.023895402
-0.068468995 0.049617127 -0.008940684 0.07962357 0.08178302 0.08847005 0.03322372 -0.044159222
0.009041334 -0.058046985 0.07965522 0.048566397 0.039635614 -0.024331274 -0.062052023 0.10673943
-0.07676451 0.0072920043 -0.037833326 -0.081005715 0.042097993 -0.08121053 0.00085622555 -0.0022874894
0.013156957 0.07640476 -0.06266435 -0.038852748 0.020258889 0.064674325 -0.0039982884 0.08880055
-0.045393795 0.058939617 -0.090900056 -0.015148221 -0.08290074 0.09129691 0.07850579 -0.0014778399
0.08719384 0.03177293 -0.045176744 0.07640264 -0.03487652 0.053040918 -0.020879658 0.009962784
-0.0016617094 0.030818462 0.10948111 0.033850897 0.10735213 0.07812119 0.086187236 0.1059469
0.10016458 -0.0003829524 0.066196695 0.051713586 -0.05643833 -0.062349796 0.08984071 -0.0043888544
-0.024130912 -0.07793949 -0.0074745733 0.054609608 -0.046868443 -0.04518773 -0.07920885 0.07619265
-0.040978022 0.06079713 0.086583674 0.06618321 0.017148452 -0.044687834 -0.07434501 0.04525519
0.0016197375 -0.037730787 0.008016717 -0.020586262 -0.050449584 -0.06397064 0.02438371 -0.00774562
0.06916824 0.06284739 -0.08267946 -0.03834298 0.06670877 0.036017437 0.009486355 0.05870424
0.008266714 -0.052633032 0.010789206 0.03099321 -0.065463655 -0.02452657 0.051508583 -0.08710044
0.08259382 0.08180287 -0.08068144 -0.064713 0.048895378 -0.07189895 -0.053570017 0.07906684
0.05547304 -0.0176468 0.062715985 0.04285522 0.07048151 -0.052229416 0.072310224 0.005484346
0.0009533631 0.038714208 0.09532467 0.0578091 -0.004110952 0.114287734 0.084167115 -0.03614226
-0.0027249157 -0.037695475 -0.055323876 -0.109412044 -0.08665939 0.06695696 -0.07923622 -0.037011493
0.067423575 0.0861493 0.014367949 0.03884522 0.06617723 0.06645877 0.06409252 0.06519378
-0.052574813 0.045360643 0.06814003 0.06263693 0.020792574 -0.0148573555 -0.029204393 0.023747228
-0.03551696 0.06725555 0.02444441 -0.061853908 0.10763018 0.03144343 0.034087844 -0.030410906
-0.08208783 0.072480805 0.030786399 0.049248893 -0.07914186 -0.02407987 0.027937641 0.042212445
-0.07560336 -0.06990968 -0.037501927 0.0053481907 -0.083825715 -0.03916022 0.012782627 0.08454649
0.05256722 -0.026752507 -0.00014425509 -0.046753336 -0.08124803 0.011019451 0.0755388 0.057144295
-0.072118275 -0.04207281 0.0027815509 0.0028918458 0.08241671 -0.103280015 -0.06800611 0.070988946
-0.0241037 0.03724908 0.035574153 -0.08857518 -0.04303374 -0.0243294 0.077244356 0.052132167
0.036583133 -0.07132027 0.06966614 0.0025035024 0.054577995 0.09418369 0.09981145 0.04536048
0.056888252 -0.082531534 0.0468267 -0.026145943 -0.06250321 -0.06578516 -0.021847405 0.05615916
00000000: 1709 e73d cc62 96bd 4d14 aa3d b478 c83d
00000010: fc83 013d a70a 92bd 2ec9 a0bb cd7a b33b
00000020: b3b1 f73c 7e55 ce3d e37f 34bd 596f b0bd
00000030: 6a64 983d a542 96bd e060 9e3d a29b 14bd
00000040: 60b0 b73d 2896 c33c a000 133d 1220 893d
00000050: 249f 14bd 1c86 b9bc bf2d f9bc 0c74 fd3c
00000060: fae7 c33d 6a09 0d3d d96e a8bd b1d8 7dbc
00000070: 18c5 c83d 0067 c93c be78 09bd b702 2dbd
00000080: b002 3a3c adb8 e43c 952b 4cbc 0c67 a83b
00000090: 64ef b33b 3dcd 75bd 4540 883d 4ac0 c33c
000000a0: 7939 8cbd 543b 4b3d f27b 12bc af11 a33d
000000b0: db7d a73d c92f b53d 9815 083d 4de0 34bd
000000c0: 1a22 143c adc2 6dbd 4722 a33d 8fed 463d
000000d0: f458 223d 6152 c7bc 432a 7ebd 349a da3d
000000e0: b636 9dbd c4f1 ee3b 1ef7 1abd 53e6 a5bd
000000f0: f26e 2c3d b551 a6bd 5374 603a b4e9 15bb
00000100: 4790 573c 197a 9c3d 2b56 80bd 0f24 1fbd
00000110: f8f5 a53c f973 843d 1304 83bb 10dd b53d
00000120: d8ee 39bd ab6a 713d cf29 babd 3e30 78bc
00000130: ddc7 a9bd e0f9 ba3d a5c7 a03d 14b4 c1ba
00000140: af92 b23d 5524 023d 400b 39bd fd78 9c3d
00000150: afda 0ebd 6f41 593d d10b abbc f23a 233c
00000160: b7cd d9ba 0077 fc3c a237 e03d 3da7 0a3d
00000170: 6fdb db3d 01fe 9f3d ef82 b03d b0fa d83d
00000180: 1623 cd3d 00c7 c8b9 2292 873d a0d1 533d
00000190: e12b 67bd 8062 7fbd 68fe b73d 61d0 8fbb
000001a0: 31ae c5bc bd9e 9fbd 44ed f4bb 53ae 5f3d
000001b0: 20f9 3fbd c516 39bd 4038 a2bd e40a 9c3d
000001c0: 92d8 27bd 6906 793d c852 b13d 108b 873d
000001d0: e97a 8c3c 970a 37bd 3242 98bd 825d 393d
000001e0: 5f4d d43a 998b 1abd 8c58 033c 85a4 a8bc
000001f0: 39a4 4ebd 0a03 83bd 59c0 c73c f8ce fdbb
00000200: 14a8 8d3d 22b6 803d d953 a9bd 870d 1dbd
00000210: 9c9e 883d 0587 133d a86c 1b3c db73 703d
00000220: 1d71 073c bc95 57bd 36c5 303c 79e5 fd3c
00000230: cf11 86bd f2eb c8bc aafa 523d b761 b2bd
00000240: f326 a93d 4388 a73d 503c a5bd 4088 84bd
00000250: 8546 483d c23f 93bd 3c6c 5bbd cced a13d
00000260: b337 633d 0690 90bc 3d71 803d f588 2f3d
00000270: 9c58 903d 83ee 55bd 6217 943d 07b6 b33b
00000280: 1deb 793a ca92 1e3d 9539 c33d 3cc9 6c3d
00000290: 2ab5 86bb b00f ea3d cf5f ac3d e809 14bd
000002a0: 8094 32bb 9266 1abd 4a9b 62bd 6c13 e0bd
000002b0: 7a7a b1bd bb20 893d 9946 a2bd 5d99 17bd
000002c0: 5f15 8a3d 0b6f b03d 8c67 6b3c 2a1c 1f3d
000002d0: ed87 873d 891b 883d f042 833d 5184 853d
000002e0: b058 57bd 15cc 393d 008d 8b3d ca47 803d
000002f0: 3055 aa3c 446c 73bc 0d3e efbc 8c89 c23c
00000300: 3b7a 11bd 47bd 893d a53f c83c 865a 7dbd
00000310: 366d dc3d d3ca 003d b29f 0b3d 4b20 f9bc
00000320: aa1d a8bd d170 943d c233 fc3c 35b9 493d
00000330: 2115 a2bd 2643 c5bc 7bdd e43c f5e6 2c3d
00000340: efd5 9abd ce2c 8fbd 9f9b 19bd e03f af3b
00000350: d1ac abbd 7866 20bd 396e 513c b626 ad3d
00000360: ba50 573d 1328 dbbc 2e43 17b9 6d80 3fbd
00000370: 5e65 a6bd ed8a 343c 16b4 9a3d 2310 6a3d
00000380: bfb2 93bd 8a54 2cbd ae4a 363b 1f85 3d3b
00000390: 18ca a83d 7984 d3bd ca46 8bbd a762 913d
000003a0: 1f75 c5bc 7e92 183d 34b6 113d e766 b5bd
000003b0: 2644 30bd 734e c7bc 4a32 9e3d 8a88 553d
000003c0: 32d8 153d 5d10 92bd 1fad 8e3d cd11 243b
000003d0: 2d8d 5f3d 61e3 c03d f269 cc3d e9cb 393d
000003e0: a803 693d 4b06 a9bd 5bcd 3f3d 0430 d6bc
000003f0: af01 80bd 5fba 86bd 54f9 b2bc 2607 663d

classifier.2.weight f4 [3, 1024]
0.091574445 -0.0533747 0.035686135 0.04103558 -0.010295837 -0.06469673 -0.0010155902 0.005991149
0.025866587 0.029502057 -0.029150428 0.07294405 0.02701707 -0.03056221 0.027967926 0.03949696
0.048638117 0.011426032 0.07815596 0.04516968 -0.07188221 -0.0393249 0.03803203 0.02297353
0.040137645 -0.006220092 0.09349122 0.10010144 0.009583774 -0.0058626113 0.07018299 -0.030807171
0.058875185 0.07126167 0.002039729 0.06565065 0.07811398 -0.003221847 0.019846402 0.017015588
0.015313918 -0.017201733 0.03806518 0.06212047 0.09171599 0.044776976 0.011398912 -0.032290693
-0.009545342 -0.027372686 0.0139997015 0.053643 0.008876063 0.09714898 -0.07334855 0.08636089
-0.017527383 0.047628082 -0.019012617 0.037091877 0.004334959 -0.016690254 0.14565405 -0.010935807
0.09415226 0.077461876 -0.07234133 -0.039112676 0.04801499 0.04392375 -0.03541539 0.07607317
-0.058610387 0.018432302 0.14450648 0.078525566 0.02656272 0.0743392 0.07040369 0.009800056
0.029908387 -0.032369636 -0.030170942 0.028221633 -0.047405086 0.04035744 -0.08566768 -0.006816542
0.15182224 -0.0907907 0.02763209 0.049384497 -0.0012427669 0.06896901 0.081261486 0.053417645
0.06865214 0.05870532 -0.0039132996 0.058507785 -0.046001296 -0.042192094 0.020463286 -0.0119825
-0.014942121 -0.0158832 0.03631891 0.075049795 -0.0037585464 0.029194776 -0.0033279154 0.05151919
-0.020598704 0.094538316 0.06280721 0.13433874 0.11088936 0.018575814 -0.06845336 0.057694864
-0.045879208 0.005653741 0.01187871 0.037025183 -0.028983869 0.061535884 0.08673551 0.031701356
0.040320978 0.037754644 0.012053748 -0.004777439 0.06047494 0.065783374 -0.019758057 0.07143739
0.042862482 -0.0013484997 0.0177706 0.08723116 -0.052879672 -0.019338964 0.0011532921 -0.0158314
0.049563494 0.042388465 -0.037953313 0.016485684 0.12359827 -0.03500397 0.016926458 0.03223208
0.065759465 -0.07961533 0.044005 0.024664396 0.05054797 0.006468955 0.052560378 0.04170394
0.059227705 0.06552733 0.047736425 0.11131669 -0.009009788 0.09977638 0.018268652 -0.036044244
-0.0066795894 0.10852405 0.025820756 -0.090117 0.049662743 0.15667112 -0.02362862 -0.0006844502
0.02277692 0.10160233 -0.029640397 0.022186987 0.037857864 0.055817652 0.091588326 0.083824426
-0.081756555 0.0035495455 0.021839276 -0.005845306 0.006923126 0.12577814 0.060271114 0.004175062
-0.040800747 0.16428415 0.0070832097 -0.03199118 0.014880052 0.04891707 -0.02304279 -0.1909283
0.15591761 -0.020546291 -0.021854 0.0109186275 -0.0050804825 -0.06289667 0.14772898 -0.00563101
0.017761925 -0.042693138 -0.042137075 0.019114535 0.0019829255 0.032602996 -0.026296835 0.04727266
0.037137274 -0.024810264 -0.05580268 -0.031015413 0.052293036 -0.007651883 0.0058520786 0.0022514197
0.016581232 -0.041153014 -0.030141778 0.014798593 0.07805544 0.15226921 -0.009006439 0.02921412
-0.06950263 0.0045467247 0.06715651 0.16301504 0.0036154613 -0.0581339 0.06782468 -0.010003926
-0.02377339 -0.005217205 0.0631325 -0.0047764233 0.04710124 0.0437175 0.066986956 0.003958998
-0.018082108 0.043597586 -0.021148803 0.09177934 -0.007420297 -0.017694404 -0.030045362 -0.0099492
00000000: 628b bb3d 6e9f 5abd a02b 123d ed14 283d
00000010: dfaf 28bc b87f 84bd 8d1d 85ba 6751 c43b
00000020: 2ae6 d33c 4cae f13c e1cc eebc b163 953d
00000030: e752 dd3c 9a5d fabc fe1c e53c 90c7 213d
00000040: c338 473d 4034 3b3c 3b10 a03d d803 393d
00000050: fb36 93bd 2513 21bd 79c7 1b3d fc32 bc3c
00000060: 5f67 243d ead1 cbbb 5378 bf3d fc01 cd3d
00000070: 4305 1d3c 261b c0bb 19bc 8f3d 525f fcbc
00000080: 1b27 713d a3f1 913d f9ac 053b d973 863d
00000090: 39fa 9f3d 9f25 53bb ec94 a23c 4664 8b3c
000000a0: 3ae7 7a3c a6ea 8cbc 3cea 1b3d 0972 7e3d
000000b0: 98d5 bb3d 1068 373d 81c2 3a3c 3f43 04bd
000000c0: 1164 1cbc af3c e0bc 015f 653c c3b8 5b3d
000000d0: e86c 113c 0bf6 c63d c437 96bd fadd b03d
000000e0: 9695 8fbc aa15 433d 59c0 9bbc a7ed 173d
000000f0: 460c 8e3b 00ba 88bc 5626 153e 192c 33bc
00000100: e6d2 c03d 55a4 9e3d b127 94bd 9d34 20bd
00000110: 5eab 443d 64e9 333d ba0f 11bd 40cc 9b3d
00000120: 7211 70bd 57ff 963c 82f9 133e 03d2 a03d
00000130: 109a d93c 273f 983d cf2f 903d 6a90 203c
00000140: 6f02 f53c 0696 04bd 0d29 f7bc 0e31 e73c
00000150: d62b 42bd d84d 253d 8972 afbd 4c5d dfbb
00000160: 4a77 1b3e 79f0 b9bd b15c e23c 6647 4a3d
00000170: 56e4 a2ba a03f 8d3d 6c6c a63d 76cc 5a3d
00000180: 7e99 8c3d fd74 703d 233b 80bb dca5 6f3d
00000190: db6b 3cbd 9ed1 2cbd 9fa2 a73c 3f52 44bc
000001a0: cccf 74bc 7c1d 82bc 23c3 143d b5b3 993d
000001b0: f251 76bb e229 ef3c 2819 5abb c905 533d
000001c0: 9dbe a8bc 4e9d c13d 11a1 803d 1890 093e
000001d0: f619 e33d 4e2c 983c 4631 8cbd 7351 6c3d
000001e0: d6eb 3bbd 0443 b93b ec9e 423c b8a7 173d
000001f0: 946f edbc 0d0d 7c3d 63a2 b13d 48d9 013d
00000200: 9c27 253d 9da4 1a3d 157d 453c 108c 9cbb
00000210: 92b4 773d 6fb9 863d a6db a1bc c44d 923d
00000220: 9290 2f3d 24c0 b0ba a693 913c 40a6 b23d
00000230: 5b98 58bd bf6c 9ebc 102a 973a dab0 81bc
00000240: 1703 4b3d 879f 2d3d ef74 1bbd fc0c 873c
00000250: 1721 fd3d 5360 0fbd 5ba9 8a3c c905 043d
00000260: e6ac 863d 5d0d a3bd 963e 343d fd0c ca3c
00000270: 630b 4f3d 87f9 d33b 8d49 573d c0d1 2a3d
00000280: c098 723d 3133 863d 4587 433d 01fa e33d
00000290: ca9d 13bc 8f57 cc3d 24a8 953c 21a3 13bd
000002a0: 75e0 dabb db41 de3d 0d86 d33c 438f b8bd
000002b0: 296b 4b3d 656e 203e cf90 c1bc ad6c 33ba
000002c0: aa96 ba3c e214 d03d 6bd0 f2bc 7cc1 b53c
000002d0: d910 1b3d 0da1 643d a992 bb3d 24ac ab3d
000002e0: fb6f a7bd 7e9f 683b 48e8 b23c fb89 bfbb
000002f0: 64db e23b fccb 003e d8de 763d f5ce 883b
00000300: af1e 27bd 1b3a 283e 451a e83b 2f09 03bd
00000310: 76cb 733c 445d 483d 3cc4 bcbc b582 43be
00000320: dea8 1f3e b250 a8bc 2907 b3bc 0be4 323c
00000330: 2d7a a6bb f8cf 80bd 4446 173e 5684 b8bb
00000340: 7581 913c 00df 2ebd ed97 2cbd 1696 9c3c
00000350: f8f3 013b b88a 053d 766c d7bc faa0 413d
00000360: 411d 183d e53e cbbc 5a91 64bd 0914 febc
00000370: 3931 563d a6bc fabb cbc2 bf3b 8e8c 133b
00000380: 5dd5 873c 1090 28bd e4eb f6bc cc75 723c
00000390: 88db 9f3d 76ec 1b3e be8f 13bc 7352 ef3c
000003a0: 6557 8ebd b1fc 943b 5a89 893d 6aed 263e
000003b0: 60f1 6c3b d01d 6ebd aae7 8a3d 82e7 23bc
000003c0: 6ac0 c2bc 16f5 aabb 9d4b 813d 8b83 9cbb
000003d0: 3bed 403d 1f11 333d 7530 893d 7bba 813b
000003e0: ee20 94bc 6293 323d 4140 adbc cef6 bb3d
000003f0: f625 f3bb dbf3 90bc b121 f6bc f801 23bc

classifier.2.bias f4 [3]
-0.0056749787 0.0048197987 -0.0010318316
00000000: 2cf5 b9bb 67ef 9d3b 863e 87ba
