Weights/cnn30.pt (torch, 719675 bytes, 8 tensors)

encoder.0.weight f4 [128, 13, 3]
00000000: 2a3a ebbd 6018 c7bd 28bc e93d 05c4 23be
00000010: 066f 0d3e 418a 3d3d c845 bb3d bf75 1c3e
00000020: 152d 6cbd efd6 e53d 7370 073e 4d35 55bd
00000030: dec3 2bbe ae11 e23d 3e6a b6bd 6dbf 8b3c
00000040: cd55 5abd 82aa 0f3b b769 ca3d ed60 3fbe
00000050: 222e 39be bed2 8cbd 6c39 84bc d8d6 0f3e
00000060: b260 b73d c8a0 d93d c68f c6bd b53d 823d
00000070: 56c6 273e 61c2 4f3d 4033 1ebe 89ce 123d
00000080: 85b6 cd3c 4f6d be3d f0b3 013c bdf7 a83d
00000090: d38d 76bd 0aad 6fbd 98d3 463e fecf dcbb
000000a0: b7df debd 10ca 8d3d c925 173e 4163 d5bd
000000b0: 6399 0abe 2983 14bd b262 07bd dac7 213e
000000c0: c83f 0dbe 0a43 babc ea3a 823d 986b 41bd
000000d0: a616 423e 7354 e53d ba97 143e 0045 023d
000000e0: 86a9 a2bc a836 eebd 4b4d 063e a5f2 b03c
000000f0: e792 05bd 3713 293e e5e8 093d 343c c93d
00000100: f791 9cbd c180 083d 33d7 4e3d d53c e63d
00000110: 01e1 9d3d b38d 243e f1c4 18be 235d 253c
00000120: dd4e efbd c4cb 01bd accc 9b3d 4ac2 083e
00000130: 29ba 983c f95d 4c3e 2513 1fbe 4964 2bbd
00000140: 8d67 ca3b 136d a53c f843 873d 4758 9b3d
00000150: 4523 043e b7d7 0fbe bd45 3fbd 5d15 093e
00000160: 20ca 143e 6183 0b3e 8f2f 773e 702c 213e
00000170: 8c57 b93d 5a2d 033e bd72 fe3d 5e8a 853d
00000180: 6913 bebd 54dc 7a3d 4858 073e 7bb8 283e
00000190: ae7a c0bd 3ef2 efbd 772f 283e ea06 91bd
000001a0: 9fa3 ba3d d2c6 3ebd 9198 b43d 405c 00be
000001b0: bee3 ca3c 7042 023c 98e9 4dbd 6604 cebc
000001c0: 96dc 153e 34e5 bebd afc0 233e 86fe 27be
000001d0: 47f6 c2bd e2ac 753d 834d 25be 92dd 663d
000001e0: e0ee 1fbe f3da 703d 8853 ad3d 0c65 31be
000001f0: 7b63 a83d dca6 26bd a215 bd3c f09b 063e
00000200: 3a10 5fbd da9c 133c 89bc efbd c841 ccbc
00000210: c785 bf3d ba37 573d f832 3e39 a371 fc3d
00000220: 67c6 8b3d e8d4 81bd b72b 773d ce68 21be
00000230: 95e5 cfbd efc5 15be 4ff5 97bc 6a7e 0b3e
00000240: 1ea1 ca3c 69ab 04bd b7de 013e c984 d73c
00000250: 8208 37bd f997 113e 60cb 45bd f062 ce3c
00000260: 4645 f93d d911 833c 4a53 c9bd d3f3 013e
00000270: 5ebf 17be 0eec b4bc cebb 223e af34 b53d
00000280: 73d3 cd3d a6f6 aebd 681c d23c 1a7b f6bd
00000290: 9aaa ce3c 614f a4bb a707 ef3d f82f edbb
000002a0: bc1d bcbd 0e30 18bd fba5 9a3c fedc 0c3e
000002b0: 2395 273d 1e23 b33d d90d 943d 9b16 d53d
000002c0: d5de 0d3d c050 d7bd ecd4 6b3c 8f0b 963d
000002d0: fd9e fd3d 95f8 c5bd f065 f13d 2380 0bbe
000002e0: 5458 f3ba 8cb3 f2bd d5a2 c23d 6377 cc3d
000002f0: 2690 c1bd 4263 1abe 394f 67bd 5478 92bd
00000300: 0fa4 41be a55d 813e cf92 b0bd 965a 183d
00000310: c684 b83d adb3 e6bd fb79 d6bd 3433 3c3e
00000320: 9ade fa3d d9b9 13bc d739 ffba bd77 c2bd
00000330: 1edb a5bd 2fd5 9bbd 96b0 acbd d700 d93d
00000340: 5cfd cb3d 0e22 14be dc0a 23bb 7c03 c3bd
00000350: 3844 343e 642e b3bd 23a5 89bc 05ca 7fbd
00000360: 1583 cd3c 4acf 123e fbbe 1c3e 88d6 0f3d
00000370: 6c50 303e 23e9 23bd 06ba febd d8cb 4c3d
00000380: 6e0a 9f3d 0ed5 bc3d 5ebe 1fbc 0b8f e2bd
00000390: 8407 b43d bcbc 0b3d d413 26bd 7131 5ebe
000003a0: 709c 28be a38b 2abe 5e4f ffbd b541 01be
000003b0: 4e32 b53b 81df ddbb b6b3 2a3e c8a1 2c3e
000003c0: 5358 eb3d 9f2d b3bd c228 febd f2ac 023e
000003d0: 031e 52bb b785 6abc 47be 8dbd 33b5 ad3d
000003e0: 9cd3 593e 4e39 e9bc 75e7 c2bd 0c0e 0ebe
000003f0: e17f 223e 13a2 113e cc63 033c 0d10 a6bc
-0.11485703 -0.09721446 0.11412841 -0.15992744 0.13811883 0.046274427 0.09144169 0.15279292
-0.05766018 0.11222636 0.1322649 -0.052052785 -0.16773936 0.110385284 -0.08906983 0.017059052
-0.053304482 0.00219217 0.09883445 -0.18689318 -0.18084005 -0.068761334 -0.016140662 0.140468
0.0895399 0.1062637 -0.09695391 0.06359426 0.16384253 0.050722484 -0.15449238 0.0358415
0.025111446 0.09298193 0.007916436 0.08250377 -0.060193848 -0.058514632 0.19416654 -0.006738662
-0.10882514 0.06923306 0.14760508 -0.10419322 -0.13535075 -0.036257897 -0.033053108 0.15798894
-0.13793862 -0.022737045 0.06358893 -0.04722175 0.18953952 0.11197748 0.14511004 0.031804085
-0.019856226 -0.116315186 0.13115422 0.021600077 -0.0326108 0.16511236 0.03366937 0.09825936
-0.07645028 0.033325914 0.0504982 0.112420715 0.07708932 0.16069679 -0.14918877 0.010093006
-0.11684964 -0.031688467 0.076073974 0.13355365 0.018643456 0.19957723 -0.15534647 -0.041843686
0.006176895 0.020193612 0.06604761 0.07585197 0.1290408 -0.14047132 -0.046697367 0.13387056
0.1453023 0.13624336 0.24139236 0.15739608 0.09049901 0.12810269 0.12424228 0.06520532
-0.09281046 0.061245278 0.1321727 0.16476624 -0.09398399 -0.11716126 0.16424356 -0.07081397
0.091132395 -0.04657633 0.08818162 -0.1253519 0.024766799 0.00795041 -0.0502716 -0.025148582
0.14634928 -0.09321061 0.15991472 -0.16405687 -0.0951963 0.059979327 -0.1614285 0.05636365
-0.15618467 0.058802556 0.08463198 -0.17323703 0.082220994 -0.040686473 0.023081604 0.13145423
-0.054458834 0.009009564 -0.11705882 -0.02493371 0.09351688 0.05254338 0.000181388 0.12326362
0.068249516 -0.06339437 0.060344424 -0.15762636 -0.10151211 -0.14626287 -0.01854959 0.13622442
0.02473503 -0.032390032 0.12682615 0.026308434 -0.044685848 0.14218129 -0.048289657 0.025193661
0.12171416 0.015999721 -0.09830339 0.12690668 -0.14819095 -0.022085216 0.15891954 0.08847939
0.10050096 -0.08543138 0.02564831 -0.120351985 0.025227834 -0.0050143455 0.116713814 -0.0072383843
-0.09185359 -0.037155204 0.018877974 0.13756177 0.040913712 0.087469324 0.07229204 0.10404702
0.034636337 -0.10513449 0.014394026 0.073264234 0.1238384 -0.09666554 0.11787021 -0.13623099
-0.0018565753 -0.11850652 0.09503714 0.09983709 -0.09451322 -0.15076926 -0.056472037 -0.07151857
-0.1891024 0.25266758 -0.086217515 0.037195764 0.090096995 -0.11264739 -0.10472485 0.18378907
0.12249489 -0.0090164775 -0.0019472194 -0.094954945 -0.08098434 -0.07609021 -0.084321186 0.10595863
0.09960434 -0.14466116 -0.00248783 -0.09522149 0.17604148 -0.08749083 -0.016802376 -0.06244852
0.025086919 0.14336887 0.15307228 0.035116702 0.17218179 -0.04001726 -0.12437825 0.049999088
0.07765661 0.092203245 -0.009749977 -0.110624395 0.08790496 0.034115538 -0.040546253 -0.21698548
-0.16465926 -0.1665483 -0.1246631 -0.12622721 0.0055296784 -0.0067710285 0.16670117 0.1685859
0.11491456 -0.08748936 -0.12410118 0.12761286 -0.0032061345 -0.014314107 -0.06921058 0.08481827
0.21272129 -0.028469708 -0.09516803 -0.13872546 0.15869094 0.14221983 0.008019399 -0.020271325

encoder.0.bias f4 [128]
00000000: 5384 343d e290 5e3d 8824 1e3e c884 39bd
00000010: aff9 e1ba 1ac5 b83d 14ab 88bd 0f9c 833d
00000020: 2149 eabd 7404 89bd 6d2a a4bd d521 153d
00000030: d5b3 0cbe e88d 5ebc 0ab6 18be 722a 32bd
00000040: 11ff 7bbc d59e 8fbc bc6f 423a 6ca7 293e
00000050: d400 4ebd 2a64 633d 5649 073e 1026 303e
00000060: ddab edbc dc9a d9bc ddff 2d3d 1e63 b03d
00000070: d72a bb3d ab37 be3c 1cc7 b7bd ac06 d7bd
00000080: 41b8 2ebd 1dce 123e ab2e e6bd 0eb4 cf3c
00000090: 58bf 153d 4c90 c03c 8304 d73d 01cf e03c
000000a0: 5c54 b53d f99b a93c d3dc d83d f0ff 12be
000000b0: 3914 093d 4652 0ebe ddda 44bd 5a45 bc3d
000000c0: b0e6 85bd 8ada 8abc 9992 a23d 2563 a83c
000000d0: 1395 64bc 1ba6 f93b 4f24 f03d dc9b 163e
000000e0: c9fd c5bd f65a 92bc 1e97 debd ffd8 b53d
000000f0: 978a c43d 84f6 003e 7913 1e3e 4e38 05be
00000100: 332e 86bd 2946 41bd 8394 ed3d e3a0 15be
00000110: 6efa 9e3d 6c4a 983c 39de 1e3c c566 95bc
00000120: 5470 c6bb e1be d0bc 09b5 11be 9d97 043e
00000130: 8b23 0a3d f6dd edbd 0baa b43d 97e8 1cbe
00000140: 257d 503d 2e6f 70bd 4e67 123d 8450 a6bd
00000150: 5500 60bd 936e 80bd 7e07 c13d c3ea 0a3e
00000160: d206 fe3d 99cd b43d 4a25 bc3d 9263 d8bc
00000170: e2b9 d1bd 3d8c 033e 55f5 a13d 1ef5 cabc
00000180: 4341 eabd 9530 bd3b 9c7a 8e3d 1119 08bd
00000190: 0af5 f83d bf02 ae3d d053 f5bd 31b5 953d
000001a0: 7e71 123e 1862 f13a e54a 4fbd 58a9 7a3d
000001b0: 5afd 9dbd 3e01 a53d 740b d23d 09cb 04be
000001c0: 0940 123c 23ef f83d 52bc 3e3d ead0 da3d
000001d0: 0755 b23d 2d72 aa3d 849b 323c 5ca3 ef3b
000001e0: 37a4 823d 2005 03bd 0012 7cbd 06fa d5bd
000001f0: 3882 273e 1ecb 313e afc9 1ebe 4ce0 b33d
0.044071507 0.05433739 0.15443623 -0.045292646 -0.0017240549 0.09021969 -0.066732556 0.0642625
-0.114397295 -0.066903025 -0.080159046 0.036409218 -0.13740475 -0.013583638 -0.14913192 -0.04349751
-0.015380637 -0.017531792 0.00074171624 0.16567773 -0.05029376 0.055515446 0.13211569 0.1720202
-0.029012615 -0.0265631 0.04248034 0.08612655 0.091390304 0.023219904 -0.08973524 -0.104993194
-0.042656187 0.14336438 -0.1123937 0.025354411 0.036559433 0.023506306 0.104989074 0.027442457
0.08853981 0.020704256 0.10588994 -0.14355445 0.03346655 -0.13898572 -0.048060287 0.09192915
-0.06538141 -0.01694991 0.079381175 0.020555088 -0.013951558 0.0076186783 0.11725675 0.14707893
-0.09667546 -0.01786564 -0.10868667 0.08879279 0.095967464 0.12594038 0.15437116 -0.1300976
-0.065517806 -0.04718605 0.11600592 -0.14612155 0.077626094 0.018590175 0.009696537 -0.01823748
-0.006055871 -0.025481643 -0.14229216 0.12948461 0.033725303 -0.11614601 0.088214956 -0.15323101
0.050900597 -0.05869978 0.03574305 -0.08120826 -0.054687817 -0.0627109 0.09425257 0.13566117
0.124036446 0.08828277 0.091868 -0.026414666 -0.102405325 0.12846465 0.079081215 -0.024775084
-0.11438229 0.0057736137 0.0695698 -0.03322703 0.121561125 0.084966175 -0.119788766 0.0730995
0.14301106 0.0018416075 -0.050608534 0.061196655 -0.077143386 0.080568776 0.10256091 -0.12968077
0.0089264 0.12154987 0.046566315 0.106843784 0.08707624 0.083225586 0.010901336 0.007313175
0.06378978 -0.03198731 -0.061540604 -0.10448079 0.16358268 0.1736264 -0.15506624 0.087830156

encoder.3.weight f4 [64, 128, 3]
00000000: 976a 1fbd a6ab aa3b dad5 1d3d b2a5 1fbd
00000010: 7cfa 273d eaa0 d9bc 3694 89bc cdfd 033d
00000020: 996b 183d ed8d 8ebb b251 d9bc 4a3b 1fbd
00000030: 5b21 733c e1e0 e0bc 7ddf 36bd 7358 bf3b
00000040: 261c a03c 031b 663c 8f63 98bc 419f 05bc
00000050: d032 153d 3974 07bd cc7c 313d 5995 39bd
00000060: aa05 ffbc 87d4 56bd feca f0bc ad37 a4bb
00000070: 009f 3bbc d423 c2bc f468 1dbd 345d 013c
00000080: fb82 a5bc f419 0f3c 5751 c0bc dbbe d83c
00000090: b2e5 b0bc aac6 003d 53bf a93c e761 933c
000000a0: 0294 ec3a e9f8 0cba 3a07 f43c 2e36 723c
000000b0: 5b5f 43bd 7714 efbc ada5 173d ece8 03bd
000000c0: 152a 16bd 4957 1ebd 50ae b53c f818 71bb
000000d0: 9d81 dcbc ae7e 583c 2a8d 4d3a 5ba3 d03c
000000e0: 9aca 8bbc 57c0 3e3c aa64 07bc 9f34 4f3d
000000f0: 6536 2d3d ddeb 453a 433b 55bd b6ad e1bc
00000100: bc5e adbc 67c5 2bbd eaed 413c b611 353d
00000110: c0ac 0b3d c4e8 0c3d 2692 3d3d e501 1ebd
00000120: 66e5 383d 0fce 0d3d 43be be3c fde4 0b3d
00000130: 9059 d73c e6af b5bc 6d30 c3bc e959 ddbc
00000140: e1c2 71bb c5ad f8bc 0d13 32bd 1469 f7bc
00000150: 51c8 38bd 5b28 d73b e10a 183d 3e2b 443d
00000160: a865 0e3d f928 3dbd 74a9 b53b 9e77 003d
00000170: 8c4a deba a2eb b9bb 1c0b f73c 89b0 9e3c
00000180: 90f6 e73c e9a9 253d 710d cbb7 32f3 90bb
00000190: 0eeb 893c 2124 2f3b d0e2 a3bc 5b63 ed3c
000001a0: 51ca 26bd 9bb2 4a3c 58ee 133d b41f 57bc
000001b0: 588e 223d e08d 9dbc 3409 99bc 3923 93bc
000001c0: 18b6 2c3d ce7d 08bd e8ba dfbc 7eca 9a3c
000001d0: a33e 073d 51d5 abbb dcb6 47bc 5946 443d
000001e0: 315d 7dbc f1b1 773a b4c6 4f3d 44ca f5bc
000001f0: 6ba1 14bc d109 4abc 9ac6 3fbd 8ac0 3c3d
00000200: c0c6 e4bc 143a fabc 7e09 78bc a324 773c
00000210: 8d05 4b3d d8bf 153d 61f6 2d3d a103 eb3c
00000220: 0ba7 1bbd 0195 27bc 9e36 9bbc 8bf9 17bd
00000230: 23c3 a63c b59d 02bd 5486 cd3c 53a4 133d
00000240: 5385 7ebc cae0 f23c 7b9f 4f3d 4989 0e3c
00000250: 579f e5bc d5b4 1ebd b588 96ba 5bbf 04bd
00000260: 2987 ab3c da5f 0f3c b5e9 00bd 7608 0e3d
00000270: 0c15 4c3d 888b 1cbd 77e0 e6bc d40f 29bd
00000280: de91 2e3b 2bcf ab3c c327 e73c 4d0d 50bc
00000290: 2d0e 9a3c 9bd4 b73c 1d70 6b3c be69 f5bc
000002a0: 0edb 29bd f91a 7abc 5af3 c5bb cdf0 3a3d
000002b0: 5f5a bf3b d176 233d 5803 263d 4ca3 153c
000002c0: 87df 18bd cef4 e03c 05d5 fe3c 2353 14bd
000002d0: 472c fbbc a976 c23b 1a34 8dbc 3b51 563c
000002e0: 4af7 023d 338a c6bc afc2 e5bc 581c 393a
000002f0: 4958 0dbd d1c0 f4bc 839f 8f3c e175 ae3c
00000300: 57c8 fdbc 4349 48bd a544 f3bc 2e9d 89bc
00000310: edb5 f8bb 50d1 eabc 601e b23b 6f64 2d3b
00000320: 60f0 1abd 805b 64bc 2a18 52bc 445a d93c
00000330: 70de 46bd ad97 103d e2d9 14bd bfc6 0abd
00000340: d8ad dd3c 7cb5 febc 723a 21bd 01c9 203d
00000350: a90a 07bd 443f aabc d253 0f3d 82e0 9a3c
00000360: 4a1b f4bc 4f53 11bd 9eec aebb 2601 193d
00000370: d9c8 30bc 656e ad3b b744 ed3c faaf e03c
00000380: 53a0 e3bc 1b2c f73c 5124 2abd 446d 41bd
00000390: 8798 c5bc de21 1dbd 46c7 4fbd 959a 1e3c
000003a0: ea57 f63c 6cc4 4abd 164b d33c 85dc 233d
000003b0: c026 4e3c 7ff9 2c3d 6cb6 ee3a af64 d53b
000003c0: 6ffe 84bc 6018 e23c e5c9 2fbd 5869 073b
000003d0: 4e9a 893c 4474 b2bc 09ff b83c 4f6a 56bd
000003e0: 50d8 213d a343 073d d2f0 8ebc fa6e 57bd
000003f0: 6894 ffba a7ff fc3b 53f0 ad3c e5ff fe3b
-0.03892001 0.0052084504 0.038534023 -0.03897638 0.041010365 -0.026565988 -0.016794305 0.032224465
0.037211988 -0.004350415 -0.026528213 -0.0388749 0.0148394955 -0.02745098 -0.04464673 0.0058394014
0.019544672 0.014044526 -0.01860216 -0.008155645 0.03642541 -0.033069823 0.043331906 -0.045308445
-0.03113063 -0.052448776 -0.02939367 -0.00501152 -0.011451483 -0.023698725 -0.03843017 0.0078957565
-0.020204058 0.008734215 -0.023476286 0.026458194 -0.021593902 0.03143946 0.020721113 0.01799102
0.0018049481 -0.00053776667 0.029788602 0.014783425 -0.04769836 -0.029184563 0.037023235 -0.032204553
-0.036661226 -0.03865746 0.022177845 -0.0036788564 -0.026917273 0.013213797 0.00078411645 0.025468519
-0.017064381 0.011642537 -0.008263746 0.050587293 0.042288203 0.00075501 -0.05205847 -0.027548652
-0.021163337 -0.041936304 0.011836508 0.044206344 0.034100294 0.03440167 0.046281956 -0.038576026
0.045140646 0.03462034 0.023284083 0.034153927 0.026287824 -0.022178601 -0.023826802 -0.027020412
-0.0036889839 -0.030356297 -0.0434752 -0.030201472 -0.04511291 0.00656609 0.03711975 0.0478928
0.034764916 -0.046181653 0.005543882 0.031364076 -0.0016959473 -0.0056738416 0.030156665 0.019371288
0.028315812 0.040445242 -2.4205745e-05 -0.0044235224 0.016835716 0.0026724415 -0.020005614 0.02897804
-0.040720288 0.012371684 0.036115974 -0.013130117 0.03968653 -0.01923269 -0.018681146 -0.017961131
0.042165846 -0.0333231 -0.027310804 0.018895384 0.03301872 -0.005243935 -0.012189593 0.04791865
-0.015464113 0.00094488176 0.050726607 -0.030003674 -0.009071688 -0.012331442 -0.04682026 0.046082057
-0.027926803 -0.030545272 -0.015138982 0.0150844185 0.04956584 0.03655991 0.042471293 0.028688254
-0.0380011 -0.010228396 -0.018946942 -0.037103217 0.02035672 -0.031888682 0.025088467 0.036045384
-0.015534717 0.029648203 0.0506892 0.0086997235 -0.02803008 -0.038746674 -0.0011484834 -0.032409053
0.020938473 0.00875088 -0.03147288 0.034676038 0.04982476 -0.038219005 -0.028183205 -0.04127486
0.0026637237 0.020972809 0.028217202 -0.012698484 0.018805588 0.022440245 0.014369992 -0.029957648
-0.041468672 -0.01526522 -0.0060409727 0.0456398 0.0058396305 0.039908234 0.040530533 0.009133171
-0.037322547 0.027460482 0.031107435 -0.036212098 -0.030660762 0.0059345555 -0.017236758 0.01308089
0.031974114 -0.02423582 -0.028046934 0.00070614135 -0.034508023 -0.029877098 0.017532116 0.021296443
-0.030979319 -0.048897993 -0.029695818 -0.016798582 -0.0075900466 -0.028664261 0.00543575 0.0026457568
-0.037826896 -0.013937831 -0.012823144 0.0265323 -0.048551977 0.0353009 -0.0363406 -0.033880945
0.027060434 -0.031092398 -0.03936238 0.039254192 -0.03296915 -0.02078212 0.034992047 0.018905882
-0.029798169 -0.03547984 -0.0053382656 0.03735461 -0.010790073 0.005292701 0.02896343 0.027427662
-0.02778641 0.030172398 -0.04153854 -0.047223344 -0.024120582 -0.038362376 -0.05072715 0.00968041
0.030071218 -0.04950373 0.02579264 0.040005226 0.012582481 0.042230126 0.0018212325 0.0065122466
-0.016234605 0.027599514 -0.04291715 0.0020662155 0.016797211 -0.021783955 0.022582548 -0.052347478
0.039512932 0.033023488 -0.017448816 -0.05259607 -0.0019499185 0.007720906 0.02123276 0.00778197

encoder.3.bias f4 [64]
00000000: bd74 303d 1611 a9bc ddb3 2cbd 7678 edbc
00000010: 54bf a0bc 07e4 1a3d 2a98 2e3d e752 acbc
00000020: 4698 89bc 9476 44bd 58c0 a33c 9530 2fbd
00000030: 1d4b c03a b541 32bc e336 7f3c c3aa 2e3d
00000040: a465 31ba bbf6 f9bc f4f9 dfb9 0708 6abc
00000050: ed7b f73c 69ca 4bbc ee36 6f3c 697f e2bc
00000060: 7036 34bd b882 afbc 2687 4bbc fd60 0c3c
00000070: adc3 3ebd e698 c43c 5ecf 80bc de87 20bc
00000080: 0b7a 16bd d1c6 97bc b617 01bc 12c5 e4bc
00000090: 8c91 f4bb 4b10 5ebd d370 b73c 7e0d 39bd
000000a0: dd04 1fbc 45d5 c2bb a896 3a3b c5e9 16bd
000000b0: 8eb4 363d ff67 2e3d 9b8b 29bd 9924 9bbc
000000c0: 4395 3ebd 417c 3b3d a876 0e3d 8654 3a3d
000000d0: 06a5 233c ce6e 1bbd 3699 71bc 5500 be3c
000000e0: 7a79 f8bc 7f25 10bd 083c 9fbc d997 243d
000000f0: d650 adbc fa24 a7bc ee1c 7ebc b6dd 863c
0.04308008 -0.02063803 -0.04216372 -0.028988104 -0.019622482 0.03781512 0.042625584 -0.021035625
-0.016796242 -0.047964647 0.019989178 -0.04277094 0.0014670823 -0.010879924 0.015577051 0.04264332
-0.000676716 -0.030513158 -0.00042720104 -0.01428414 0.03021046 -0.012438395 0.014600499 -0.027648645
-0.04399723 -0.021424636 -0.012422359 0.008568046 -0.04657333 0.023998689 -0.01572388 -0.009798018
-0.036737483 -0.01852742 -0.007879188 -0.027926002 -0.0074636396 -0.054214757 0.022392666 -0.045178883
-0.009705749 -0.005945834 0.0028471146 -0.036844034 0.044605784 0.042579647 -0.041392904 -0.01893835
-0.046529066 0.045772795 0.03478113 0.045490764 0.009988075 -0.03794747 -0.014746001 0.023193518
-0.030331362 -0.03519201 -0.019437805 0.040183876 -0.02115671 -0.020403374 -0.015509827 0.016463142

classifier.0.weight f4 [1024, 142]
00000000: 87eb c43d b357 debd 8360 d03c 66c6 463c
00000010: 2c8d 60bc eb53 f73c 6cc0 fabc 3ef5 07bc
00000020: 43bd a93b 024f cdbc 75b2 3b3b 2a04 04be
00000030: 33cd 763c 8b48 96bd 28f6 323c df21 d7bd
00000040: cde3 e13b e9ba 913c b9fc 5d3d 4fd0 dc3b
00000050: 6292 a23d 8dc1 49bb 989d 49bd 39f4 1d3d
00000060: 8df4 5bbd 4de4 cf3d 9a60 e63d e424 68bc
00000070: f52d 583d c431 ab3b 12f9 04bc 001f 1b3d
00000080: acb6 33bc 9038 e7bc 2ea4 05ba 2389 d2bc
00000090: aadc 46bb b3ab da3c 623b f23c 9634 6c3d
000000a0: eae5 893d cdea 53ba 4bd5 8c3d 1bc9 6bbb
000000b0: b886 aabc 21bc 2ebd a036 c0bd 8d6c 06bd
000000c0: d7d5 9ebd 9da8 55bd 37e1 c0bd 27cb b8bc
000000d0: 5d23 9dbc c905 f1bd 45fc aa3c 9e27 8ebc
000000e0: 6887 d43c bf6d 0c3c ba39 8a3d ef02 e4bc
000000f0: 1d84 433d 48b4 b23c edea 33bd 6267 90bd
00000100: 8815 adbd 406e 9fbd 4da8 ac3b d8e6 5ebd
00000110: 5967 9e3d 8d88 213d bc8d 88bd fe03 fd3b
00000120: a64e a8bd 4d26 52bd dd90 aebd d9e1 d33c
00000130: d389 ccbc 7612 53bd 0190 443d 0edd f53c
00000140: c87d 0bbd 6de9 803a b22b 3d3d 9a37 88bd
00000150: 0989 773b 90e3 9d3c f7c1 adbc 9852 a2bc
00000160: 9cf3 2d3d 68ba 483d 4b0b 123d 51fb aabd
00000170: 1170 b73c 6b65 bbbb 28dd 8d3c 9614 ccbb
00000180: 680a f7bd 4871 82bd f51f ecbd 4b3b 07be
00000190: 645a 2f3a f277 c3bd 0f73 87bd 8e6e 63bd
000001a0: 1cb4 b0bd f509 9ebd ed6f babc 386d cbbc
000001b0: e645 b43c d8c3 75bd 2e1e 183d eff2 05bd
000001c0: 9773 4f3d 282e d93d 01e4 c3bc 1a27 ce3d
000001d0: 41d3 763d 9699 7fbc 53a7 133d 1e20 473c
000001e0: 7a37 163c 630b 84bd 07d6 61bd a1b0 9e3d
000001f0: 1fec 26bd 3b2b bcbc b572 62bd e538 90bd
00000200: 41ba c6bd b457 f53c 204d 94bc c4bf a139
00000210: d33f 8ebc dea0 98bc beee 633d 37c4 713c
00000220: 02ef 93bd ebdb 203d 7bc3 493d 16bb ee3c
00000230: f6fc 4c3d b637 033e 34b8 ab3d f8a7 883d
00000240: db1b ee3c 655b bf3b 9c5e af3d b25c 3bbd
00000250: cd4c fcbc 1dc6 fcbc b3e3 bd3d 1b02 04bc
00000260: 6835 253d 3b88 96bc b223 5e3d bde5 f0bc
00000270: 7477 4f3d 5827 543c ec0d 903c ef7c 143d
00000280: 3be1 ba3d f47d 323d 88dc e83c 058d c63d
00000290: ec96 c8bc c834 a0bd 6078 5ebd cf44 c43c
000002a0: d0e9 d4bc 4872 b23d c047 3bbd da64 9d3d
000002b0: 2ef7 983d 203b 613c 0585 233d 18e4 a63d
000002c0: 8dd0 563d 10c9 0cbd 54e5 7dbd 69a7 a93c
000002d0: 8d41 eabc 7c60 023d 485e 3a3d a60d 7fbd
000002e0: 48a3 153d 51e3 eb3c 5def c13b 3f87 723d
000002f0: ae45 2f3d 22d5 b03d 8834 e83b e53c 0c3c
00000300: 81ca 60bd 277c 35bd 061b b63d 7920 0fbd
00000310: 1db0 4fbd c9c1 0abd 7832 343c 8252 87bd
00000320: b605 4cbd 28f6 af3d d100 63bd c44d a13d
00000330: f2e7 a33d 710d 3bbd 37bd c53d a9d3 013c
00000340: 4026 923d 84e6 87bd dd6e 923c 55ba 1ebd
00000350: 7f0b 95bd 9386 05bd f381 133d 2901 7b3c
00000360: 18b1 0d3d 3e4e c43d ba36 b43d 0455 30bc
00000370: 1ee3 52bd a427 0a3c 8d3c 813d b164 26bd
00000380: b3b6 8fbb 5d1c 4fbd 6192 7ebd 6dbf 86bd
00000390: 67cf b23d 59eb 70bc 9945 5cbd 280d 7f3d
000003a0: 95b1 89bb acd5 7f3d fae2 b73d e142 34bd
000003b0: 85e5 e93c ce72 263d ef3e 9bbc 4a68 063d
000003c0: d9bb 8bbd ef1c 6bbb 4973 2a3d 44a8 483c
000003d0: ca21 ba3c 7431 6c3d b250 933d 0aa3 e63c
000003e0: f11b 1f3c 32c5 583d 60e6 c43d cfda 663d
000003f0: d51f 2dbd 5d7b 9a3d 7b18 fdbc fd86 b03c
0.09615236 -0.10856571 0.025436645 0.012132263 -0.013705533 0.030191382 -0.030609332 -0.008298216
0.0051800325 -0.025062088 0.0028640304 -0.12892213 0.015063572 -0.07338055 0.010922946 -0.10504507
0.006893611 0.017789321 0.054196093 0.0067386995 0.079380766 -0.0030785531 -0.04922256 0.038562987
-0.05370002 0.10150967 0.11248894 -0.014168952 0.052778203 0.0052244384 -0.008116024 0.03787136
-0.010968845 -0.028225213 -0.0005098012 -0.025700158 -0.0030343928 0.0266932 0.029569332 0.057667337
0.06733306 -0.0008083999 0.0687662 -0.0035978022 -0.020816192 -0.042659882 -0.09385419 -0.032818366
-0.077556305 -0.052162755 -0.09417956 -0.022557808 -0.019181902 -0.117686816 0.020872245 -0.017352875
0.025943473 0.008571087 0.06749292 -0.02783343 0.047733415 0.02181448 -0.043925215 -0.07050969
-0.084513724 -0.077847004 0.0052690865 -0.05441937 0.07734556 0.039436866 -0.06667659 0.007721423
-0.08218126 -0.051306058 -0.08523724 0.025864528 -0.024968063 -0.051531278 0.047988895 0.030012634
-0.0340555 0.0009835191 0.04618425 -0.0665123 0.0037770888 0.01927355 -0.021210654 -0.019814774
0.042468652 0.049005896 0.0356553 -0.08348716 0.022392305 -0.005718877 0.01731737 -0.00622804
-0.12062532 -0.06369263 -0.11529533 -0.13206212 0.00066891895 -0.09544362 -0.066137426 -0.055525355
-0.08628103 -0.07716743 -0.022758448 -0.024832353 0.022005986 -0.060001224 0.037138157 -0.032702383
0.050647344 0.10604507 -0.023912432 0.10066052 0.06026006 -0.015600583 0.036048245 0.012153653
0.0091685 -0.06447484 -0.055135753 0.07748533 -0.040752526 -0.022969833 -0.055285174 -0.07042102
-0.09703494 0.029949047 -0.018103182 0.0003085119 -0.017364418 -0.018631395 0.055647604 0.014756254
-0.072233215 0.03927223 0.04925869 0.029141944 0.05004593 0.12814221 0.08384743 0.066726625
0.029066017 0.0058397525 0.08562967 -0.045742698 -0.03079834 -0.030856187 0.09271946 -0.008057143
0.040334135 -0.018375507 0.05423326 -0.029406423 0.05065103 0.012948833 0.017584763 0.03625196
0.091249906 0.04357715 0.02842547 0.09694866 -0.024486028 -0.07822567 -0.054314017 0.023958592
-0.025990397 0.08713204 -0.045722723 0.076852515 0.07469021 0.013747007 0.03992178 0.08148974
0.052444983 -0.034371436 -0.061986282 0.02070971 -0.02859571 0.031830296 0.04550007 -0.062268876
0.03653267 0.028794916 0.005918427 0.059211012 0.04279106 0.08634402 0.0070863403 0.00855944
-0.054880623 -0.044307854 0.08891873 -0.034943078 -0.050705064 -0.033876214 0.010998361 -0.06607534
-0.049810134 0.085918725 -0.0554207 0.07876161 0.080032244 -0.045667116 0.096552305 0.007923999
0.07136202 -0.06635764 0.01787513 -0.03875192 -0.07277583 -0.032599043 0.0360126 0.015320101
0.034592718 0.09585236 0.08799501 -0.010762457 -0.051486127 0.008432303 0.06310377 -0.04062337
-0.004385793 -0.05056416 -0.062151317 -0.0657948 0.08730965 -0.014704549 -0.05377731 0.062268406
-0.0042020776 0.062459633 0.08978839 -0.044009093 0.028551826 0.04063683 -0.018950908 0.0328143
-0.068229385 -0.00358754 0.04161385 0.012247149 0.02272119 0.05766435 0.07193126 0.028153915
0.009711252 0.052922435 0.09614253 0.056361016 -0.042266686 0.07543061 -0.030895462 0.021548742

classifier.0.bias f4 [1024]
00000000: 98b1 003e 1630 8ebd 7756 ab3d 9a1d d33d
00000010: 8231 f03c 0585 98bd cd2a ec3b de82 27bd
00000020: 67c3 0b3d e71c de3d 0cd4 24bd cd8d 94bd
00000030: 944b a53d baf1 b5bd 94c0 8e3d fbaa 1dbd
00000040: 18c4 c83d 2129 883c 113e 2d3d 6192 a13d
00000050: de54 a1bc a46b 02bd a459 a3bc 4cfa 5f3c
00000060: 8108 bf3d 1296 0d3d 4a60 87bd 5065 5ebc
00000070: 5d30 e43d 45cb be3c 37ba bbbc 171f 1ebd
00000080: 2047 943c 28fa 143d 2706 14bd 9f48 073d
00000090: 36ea 2cbd 908a 84bd 7378 7b3d 838e 393b
000000a0: e989 8cbd b7dc 563d 37a0 86bc de97 b33d
000000b0: 1d22 be3d af16 c63d 85f3 1b3d cf5f 13bd
000000c0: 6379 b3bb ce6c 5abd b8b2 be3d c3a2 603d
000000d0: 5f9d 1d3d 1576 07bd 627a 9cbd 0490 ab3d
000000e0: 69d4 b4bd 8561 2e3c 375d 1abd 187b b2bd
000000f0: a613 673d 0847 a0bd 631f 843a beef 55bd
00000100: ecae 3d3d 6af2 a53d 06b3 7cbd 4aa4 32bd
00000110: afca 853c 32d4 8a3d 66f9 fdbb 1052 be3d
00000120: f72c 2fbd 7730 8d3d b571 93bd 0ddd c739
00000130: 26fd 89bd 33ea c73d 458b b03d ca99 703d
00000140: daa3 c43d 843f ef3c 1c97 88bd f3fc a73d
00000150: 07d1 1fbd c1d4 7c3d cdf8 1ebd 60b7 823d
00000160: 9ca8 ab3b fb22 823d d71f e13d 1202 293d
00000170: 94bc d53d a6be ac3d 83b2 ad3d cbc1 db3d
00000180: 0319 d53d 8bde ff3b ed64 823d 02ad 613d
00000190: a737 63bd b3a3 85bd b863 ca3d 552b 0ebc
000001a0: 5eb1 cf3b f8f5 71bd 375c a7bd d385 713d
000001b0: f1ee a7bd 573d 73bd fd35 b8bd 613c af3d
000001c0: 79d0 29bd db63 723d fde7 b93d 10f0 5e3d
000001d0: 7e1c 68bc 0dea 42bd bbbb 81bd c681 583d
000001e0: 3fd3 b2bb 9cff 0dbc fd84 60ba 285c 073b
000001f0: 52a1 4ebd 107d 1dbe e846 fe3c 177f 31bc
00000200: 173c 843d 3f36 913d 2a99 56bd 03a7 2cbd
00000210: f998 9f3d 8556 143d 84fe 0a3c cfde 793d
00000220: a472 313d 69ca 86bd 3033 c93c 815c 323d
00000230: ef12 4cbd 553b fa3c 92ea 523d 8256 bebd
00000240: 4f3a bd3d 51fb bb3d 0174 d8bd 5ee3 9bbd
00000250: eab3 273d 318b 83bd f081 6fbd 14a3 a53d
00000260: e76e 743d 5560 52bc 587d 8c3d 18a6 6b3d
00000270: 0a28 973d f722 7fbd d09e 9d3d 5c58 a53b
00000280: a5db dd3b d3d4 333d 35ea b13d ee01 473d
00000290: cc2b c7bc 90ea 013e ed09 c63d 5518 50bd
000002a0: 2213 39bc 66d9 5dbd 33c2 17bd 034b c1bc
000002b0: d4fe c1bd 5c48 873d 6ce4 46bd 7ae3 66bd
000002c0: abd3 823d 7a9a a73d 2411 493c daac 603d
000002d0: e5d6 b43d 6b66 913d a62c 823d e36e 9a3d
000002e0: d464 8ebd 4ed7 463d 5ef9 943d 194a 8b3d
000002f0: d1a9 d13c 174e 353c 1b34 b6bc 2d31 073d
00000300: 9ea9 1dbd a524 043d 2259 b93c 6e9f 6bbd
00000310: 8531 cf3d 3034 233d 3375 063d 5fdc ecbc
00000320: e033 9bbd 0564 9e3d 9a0f 093d a57a 443d
00000330: 1662 09bd a236 75bd bc99 053c 1761 443d
00000340: b350 91bd 42c0 6ebd f236 41bd 3bb1 403d
00000350: 9cf8 9bbd 8bbe 42bd 231b 9c3c 6a76 b53d
00000360: ae0e 703d 9788 f3bc 6c24 6dbc 8ff2 0cbd
00000370: ff6b bfbd 4b36 0d3c b069 b03d e1fd 903d
00000380: f207 a0bd b3cb 15bd 5665 923c 8b19 723b
00000390: 9552 b43d 1adf d8bd 8e27 86bd 613d 9e3d
000003a0: 2014 78bc 289a f63c 47df 243d a81f 6ebd
000003b0: f7d2 edbc 25e8 22bd 1e37 a93d 90b1 523d
000003c0: 4c09 123d 93e0 9bbd 392c a23d 9b8b 293b
000003d0: 3178 763d f4bc d13d 1b1d d63d 3789 4a3d
000003e0: d60c 813d 5538 c8bd f152 143d 4755 613b
000003f0: 77c5 8ebd 7a40 93bd 557b 9abc 6265 373d
0.12567747 -0.069427654 0.08366101 0.103083804 0.029320482 -0.074472465 0.0072072507 -0.04089629
0.034121897 0.108453564 -0.040241286 -0.07253609 0.08071056 -0.08883996 0.06970325 -0.038493138
0.09803027 0.016621174 0.04229552 0.07889248 -0.019693788 -0.031840935 -0.019940205 0.013670515
0.09327794 0.034566946 -0.066101626 -0.0135739595 0.11142037 0.023290286 -0.022915943 -0.03860387
0.018100321 0.03637138 -0.03613868 0.03302824 -0.04221555 -0.06471741 0.061394166 0.0028313703
-0.06862242 0.052456584 -0.016433818 0.08769201 0.0928385 0.09672295 0.038074035 -0.035980042
-0.005477117 -0.05332642 0.09311432 0.05484272 0.03848016 -0.033071596 -0.0764053 0.08377078
-0.088295765 0.010643368 -0.037686553 -0.087148845 0.056415223 -0.07826048 0.0010080155 -0.05223059
0.046309397 0.081028774 -0.061694168 -0.04361371 0.016331999 0.06778754 -0.007750678 0.09292996
-0.04276749 0.068940096 -0.07199422 0.00038120933 -0.06737737 0.09761467 0.086203136 0.058740415
0.09601565 0.029205091 -0.06669447 0.08202543 -0.039017703 0.061726335 -0.038811494 0.06382632
0.0052386057 0.06354328 0.10992401 0.04126174 0.10436359 0.08434801 0.08481314 0.107303225
0.10405161 0.0078085116 0.06366906 0.055096634 -0.055472996 -0.06525364 0.09882301 -0.008677323
0.0063382825 -0.059072465 -0.081718855 0.058965515 -0.08199871 -0.05938467 -0.089946724 0.08556438
-0.04145858 0.05917726 0.090774514 0.05442816 -0.014166949 -0.04758649 -0.06334635 0.052858137
-0.0054573114 -0.008666899 -0.00085647387 0.0020654295 -0.050446816 -0.15379739 0.03103967 -0.010833523
0.06456774 0.07090425 -0.052392162 -0.042151462 0.07792849 0.036215324 0.008483533 0.061003502
0.04332222 -0.065815754 0.02456054 0.04354525 -0.049822744 0.03054587 0.051493235 -0.09293844
0.09239637 0.09178794 -0.10569001 -0.07611726 0.040943064 -0.06423033 -0.058473527 0.08087745
0.059676077 -0.01284035 0.06859845 0.057531446 0.07380684 -0.062289204 0.07696307 0.0050459336
0.0067705684 0.043904137 0.086872496 0.048585825 -0.024312876 0.12687135 0.09669862 -0.050804455
-0.0112960655 -0.054162405 -0.037050437 -0.023595339 -0.09472433 0.06605598 -0.048557684 -0.056369282
0.06388029 0.08183761 0.012272153 0.054852344 0.088300504 0.07099613 0.06356172 0.07540681
-0.06952825 0.048545174 0.072741255 0.068012424 0.02559367 0.011065981 -0.022241643 0.033005882
-0.038491838 0.03226151 0.02262551 -0.05752509 0.10116867 0.03984469 0.032826614 -0.028913675
-0.07578254 0.07733921 0.033462144 0.047968525 -0.033540808 -0.059866555 0.008154329 0.047944155
-0.0709547 -0.05828882 -0.04717154 0.04704402 -0.07615778 -0.047544997 0.019055909 0.08860476
0.05860775 -0.029728217 -0.014474016 -0.03441101 -0.093467705 0.0086189015 0.08613908 0.070796736
-0.078140154 -0.036571216 0.017870586 0.0036941494 0.08804814 -0.10589428 -0.06550513 0.07726551
-0.015141517 0.030102804 0.040251996 -0.05813566 -0.02903126 -0.03977217 0.08262466 0.051438868
0.035653397 -0.076111935 0.07918591 0.0025870565 0.060173217 0.10241118 0.1045477 0.049447265
0.063012764 -0.097763695 0.03621191 0.0034383105 -0.06971257 -0.07190032 -0.018857637 0.04477442

classifier.2.weight f4 [3, 1024]
00000000: 6952 b23d 4ee1 67bd 4ca7 1e3d 71ed 223d
00000010: c250 023b e68e 6ebd 43a5 9dbb dd37 65bd
00000020: f5ab a63c a17b 213d 08c1 02bd 65df 193d
00000030: c811 b83c 1245 b6bb d840 833c 4be2 1d3d
00000040: c80c 583d 5c20 1b3b dbab 923d aba0 5c3d
00000050: 9cf8 263d 9ae3 2ebd 9aa3 4e3d eb95 5b3c
00000060: 2a42 153d 6e47 21bc f0b9 6d3c 4ad9 c03d
00000070: 8cbf b23a 11c9 62bc 7126 303d 49c4 04bd
00000080: 43ce 403d d00b 7b3d 7bc3 573c 263a 10be
00000090: 447d b93d 6a73 05bc 9f99 3f3c 94fa de3b
000000a0: c915 353b 86d7 a1bc 2ce4 df3d 1f35 803d
000000b0: d825 c83d 2acd 7a3d b09a 9c3c 980b 33bd
000000c0: 55bb 81bc 3556 3f3d 7146 803c 0ac8 803d
000000d0: f230 2d3c 372c f43d b41b 2f3e 1261 3f3d
000000e0: 4591 a8bc b01b 793d 986a 35bd 8100 2f3d
000000f0: e20d 70b9 6c78 633d 8901 143d cc2f cebc
00000100: 9b61 353e 368c 8d3d 7e5e 3dbd dc83 20bd
00000110: 2ede fc3c 0624 973d 76fc 13bd de80 a03d
00000120: 7deb d0bd 0b47 293d c215 2f3e 4e85 ba3d
00000130: a373 2e3d 5800 953d 5305 ce3d 5314 9abc
00000140: 4129 0f3d e614 ffbc 1ad4 023e fa23 b73c
00000150: b7cf 4cbd 8c12 f43c 0a1a 35bd 6dce 9dbd
00000160: f87f 193e 0a06 c4bd 9ea5 fb3c b4c4 263d
00000170: 42e6 c7ba 05b6 8c3d a311 8a3d 8567 413d
00000180: 9087 713d a839 d93c 918e 9cbb 5a69 703d
00000190: 0367 41bd 6ad9 51bd b26e 633c 0341 f5bc
000001a0: efa2 94bd fbbd 21bc bc3a d6bc 38de ad3d
000001b0: 1ba8 063e 3b8d 833d 577a 68bc 7096 433d
000001c0: df82 12bd 99a0 dd3d c2df 853d e33b 943d
000001d0: ed95 e03d 3e81 d23c 33f9 75bd ab84 7d3d
000001e0: f986 1bbd bb37 b7bb ed0e cebc b7d5 393d
000001f0: a854 0fbd d5e3 123e a9d7 8a3d 6fac b93c
00000200: e57d 323d 4801 1d3d afbe b0bd 12b6 13bc
00000210: d4be cd3d 17dd 863d a704 9fbc 3432 553d
00000220: 7226 27bd 30d9 95bc 9db7 b7bc 2ee1 ca3d
00000230: 61b3 fa3d 6485 003e 6a3b 803b 6b33 c4bc
00000240: 60b9 7a3d 526b 363d 2d17 cfbc d03e b23c
00000250: ff44 e23d 6837 08bd 8a3c e43c c5d0 aa3c
00000260: 7574 893d e00f 07be 9001 243d a06c d73c
00000270: a69c 813d 58d8 47bc 85ee 673d f1b4 133d
00000280: 0956 313d 0c0d 8f3d 025e 523d f070 ea3d
00000290: 2914 77bc 6ef2 e23d 3424 443d 1ba7 05bd
000002a0: ab05 44bc 23c2 2abe d2d0 be3d 6885 5b3d
000002b0: 97e2 0e3e 27c3 113e 3bc1 2dbe c9c5 f13c
000002c0: af89 5b3c dabb e13d 5947 f2bc e520 053d
000002d0: 37cd 8a3d 77e7 433d e538 3a3d 023a d03d
000002e0: aaea 1bbd 109b 043c 56c7 d83c 268f 8d3b
000002f0: 5c7f a0ba d144 0e3e 269e 553d ac9e 673a
00000300: 171b 2abd 6898 063e 0d3a 603c 13c3 73bd
00000310: 7b55 cd3c a963 343d 0761 b1bc e522 2fbe
00000320: 67a1 343e ea65 a7bc ceee 563c 7ea8 49bc
00000330: d433 99bc 027a 78bc ea3f 183e 434a ecbb
00000340: 2e94 82bd 581d 95bc 26e7 88bd ad09 103e
00000350: ca84 fe3d 5a0f 0b3e 7193 82bc e9bd 343d
00000360: e7f0 433d c5b1 f6bc 20a0 08bd eb40 e7bc
00000370: a481 f93c d4a4 c1bb 6d9c cd3b 0dcf 6e3c
00000380: b047 4b3d 7290 06bb bb78 68bd 9d78 ff3b
00000390: b491 8f3d 60bf 083e cecb 173c d243 dd3c
000003a0: d718 10bd 7798 1cbc 1cfd 7c3d 11c3 be3d
000003b0: 68c1 e23c 3b06 dcbc b687 843d 7c13 ecbb
000003c0: 01b2 f1bc 02c6 12ba 9c7d 903d 4071 a03a
000003d0: 923c 4e3d ff92 403d da01 723d 105d 1e3a
000003e0: a712 a5bc bf87 293d 4891 93bc 0a78 2a3e
000003f0: 977f 17bc 7362 adbc a4db 0abd 252f 05bb
0.08707125 -0.05661135 0.038733765 0.039777223 0.0019884561 -0.058241747 -0.0048109605 -0.05596148
0.020345667 0.039424542 -0.03192237 0.03756656 0.022469416 -0.005562433 0.01602213 0.038545888
0.052746564 0.002367041 0.07161685 0.053864162 0.040764436 -0.042697527 0.05044899 0.013402442
0.036440052 -0.00984369 0.014509663 0.094164446 0.0013637408 -0.013841883 0.04300541 -0.032413755
0.047071707 0.061290562 0.013169165 -0.14084682 0.09057096 -0.008145193 0.011694341 0.0068047736
0.0027631393 -0.01975609 0.10932192 0.06260132 0.09772843 0.061230816 0.01911673 -0.04371223
-0.015836397 0.046713073 0.01565859 0.062881544 0.0105707515 0.11922496 0.17100412 0.046723433
-0.020577082 0.06081742 -0.04429111 0.04272509 -0.00022893355 0.055534765 0.036134277 -0.025169276
0.17713015 0.06911509 -0.046232693 -0.03918825 0.030867662 0.07379918 -0.036129437 0.078370795
-0.10201166 0.041327517 0.17098144 0.09107457 0.04259075 0.07275456 0.10059609 -0.01880852
0.034951452 -0.031137895 0.12776223 0.022356022 -0.05000278 0.029794 -0.044214286 -0.07705388
0.14990222 -0.09571464 0.03071862 0.040714934 -0.0015251117 0.06870655 0.06741645 0.047217865
0.058967173 0.02651675 -0.0047777374 0.05869422 -0.04721738 -0.051232733 0.013881372 -0.029938227
-0.072576396 -0.009871955 -0.026151054 0.084896505 0.13150065 0.06423422 -0.014189324 0.04775089
-0.03576934 0.10821647 0.06536819 0.07237985 0.10966096 0.025696393 -0.060052108 0.0618941
-0.037970517 -0.0055913604 -0.025153602 0.04536983 -0.034992844 0.14344724 0.06779415 0.02266523
0.043577094 0.0383313 -0.0863012 -0.009015577 0.10046163 0.06585138 -0.019411398 0.05204983
-0.04080815 -0.01829204 -0.02242642 0.09906231 0.12241245 0.12550884 0.0039133327 -0.0239503
0.061211944 0.044535942 -0.025279606 0.021758467 0.11048316 -0.033255965 0.027860899 0.020851502
0.067116655 -0.1318965 0.040040553 0.026296914 0.063287064 -0.012197576 0.056623954 0.03606123
0.04329494 0.0698491 0.051359184 0.11447322 -0.01508049 0.11081396 0.04788609 -0.032630067
-0.011964242 -0.1667562 0.09317173 0.053594023 0.13953625 0.14234601 -0.16968243 0.029513257
0.013399526 0.11022158 -0.029575037 0.032502074 0.06777423 0.047828164 0.045464415 0.10167314
-0.03806559 0.00809361 0.026462238 0.004320043 -0.0012244987 0.13893439 0.052152775 0.00088355946
-0.04152974 0.13144076 0.013685715 -0.05951221 0.025065174 0.044040356 -0.021652712 -0.17103155
0.17639695 -0.020434339 0.013118459 -0.012308238 -0.018701471 -0.015165808 0.14868131 -0.007211001
-0.06375919 -0.018202469 -0.06684713 0.14066191 0.12427671 0.13580075 -0.015939446 0.044126425
0.047837164 -0.030114064 -0.033355832 -0.028229197 0.030457325 -0.0059095416 0.006274751 0.014575732
0.049628913 -0.0020532873 -0.056755763 0.0077963606 0.070102125 0.13354254 0.009264899 0.027009878
-0.03517994 -0.009557835 0.06176482 0.0931455 0.027680114 -0.02685844 0.06471197 -0.007204471
-0.029503824 -0.00055989635 0.07055208 0.0012240782 0.050350733 0.047015186 0.059083797 0.0006041089
-0.020150496 0.041389223 -0.018013611 0.16647354 -0.009246728 -0.021165108 -0.033900872 -0.002032229

classifier.2.bias f4 [3]
00000000: 9dab 8bbb 029e e63b e9f3 87bb
-0.0042624013 0.007037879 -0.0041489494
