Weights/cnn60.pt (torch, 719675 bytes, 8 tensors)

encoder.0.weight f4 [128, 13, 3]
00000000: c01a cdbd 1fe9 bdbd d58f fa3d 4e1c 16be
00000010: 8dad 0f3e 7393 453d f7b2 e73d a057 233e
00000020: 86aa 58bd 61f5 be3d efe0 033e c471 d4bd
00000030: 32a8 b3bd eecf b43d c4f3 34be 8c51 1b3d
00000040: 9436 3ebd 859e 033c fe85 d43d 6f13 fdbd
00000050: abba 08be d915 3bbd 0d63 bebc 31f1 053e
00000060: 233f e83d fa60 ce3d 4fb2 95bd c793 a63d
00000070: d1dc 2d3e a6d2 443d 2600 08be da7e 353d
00000080: f3ff 043d 6085 3d3e 3dbd bc3d 398c 1b3e
00000090: 6ddf e6bd 90af 74be 2ff7 aebc d18c 55bc
000000a0: 7265 eebd 93b5 6f3d 98dd 0e3e 0bc4 e6bd
000000b0: 70ce 12be d346 59bd 2db0 49bd dd38 113e
000000c0: 7953 23be 4949 c03a 69f1 223d f342 20bd
000000d0: f318 4d3e 3714 e43d a011 033e 505b 723c
000000e0: eb8e 14bd de2e 14be 79d7 fd3d 3499 eabb
000000f0: 5b50 3abd 0f8e 173e 54fa 9d3c 9d1a a93d
00000100: e91f c5bd 0f7a c03c 664b 0c3d 7ca0 c63d
00000110: 8b0c 823d 205f 133e 05b3 29be cd9b c9bb
00000120: 14df f5bd 0fc7 08bd f860 913d 8c9c 333e
00000130: 0728 123d 7e3a 583e 9389 37be 177f 83bd
00000140: 951d 9bbc 14f5 8cba 3b6c 363d 24fd 5b3d
00000150: 2053 e73d ed3c 20be 30ce 81bd b89f 0e3e
00000160: 7e04 103e 1ff7 743d 2d78 423e 7f7a e73d
00000170: dccf 603d a7b7 e33d 5384 db3d d711 473d
00000180: ea68 01be 1393 083d 6d16 163e c885 1f3e
00000190: 49b3 dbbd 212f 13be 86c0 1e3e 17f7 c6bd
000001a0: 40fe b03d da84 6abd 13eb 933d 46d3 0bbe
000001b0: 49d3 f73b 6fc6 17bc 66ac 8dbd 1438 14bc
000001c0: 90d6 273e f17d 9cbd 1bc0 113e be15 533d
000001d0: 9266 693c 5f7e bf3d 90c0 fdbd 0e69 c73d
000001e0: a5b6 0dbe a728 9e3d 4853 d23d ec39 11be
000001f0: 6062 e83d c3b4 29bc 165d 70bb dc64 0f3e
00000200: ab3b 81bd 4480 08bd 6195 49be 71c3 34be
00000210: ac29 fc3d 0430 a73d 7f5d e93c 25f2 ec3d
00000220: bd89 c23d 06ca 013d e730 cf3d 722f 02be
00000230: 667c b8bd 57cb f1bd f692 843c 3e8f 1b3e
00000240: be15 4b3d 0c1f 52bc fe1a 1d3e 9060 633d
00000250: 681d 5cbc d9e3 323e 6532 e1bc 2f00 3c3d
00000260: 1037 0d3e d942 a2bd 4a1d cabd 0d93 cbbd
00000270: 6fec 06be 7c4f 90bb 9ac2 363e f7bc bf3d
00000280: 1c7e d83d 8df2 aabd d974 3d3d 0090 ccbd
00000290: 1047 323d 4d50 f3bc 6d8d a33d 31ab fabd
000002a0: 195c 68bd 7054 7dbd a7bf 41bc f8eb 203e
000002b0: 9d2a 7a3d 1cb8 d43d f22a bb3d 11bb 163e
000002c0: 6192 703d ba30 b0bd f2c9 d93c 073c b73d
000002d0: 71e6 063e fe13 83bd 282f ff3d 36a7 f9bd
000002e0: 0dc7 7d3c f73d dbbd 4624 ea3d ac5c f53d
000002f0: 1ed8 9cbd 5149 ecbd 796c ccbc 42d9 40bd
00000300: a204 8abd c247 b13c c174 dc3d 3496 063d
00000310: 721e b43d f2c8 03be 1a62 d1bd b686 443e
00000320: ec49 f23d ec40 88bc 6395 193a 1ab3 dabd
00000330: 0058 acbc d468 ddbc 4cc3 60bd 3a73 c83c
00000340: ed5e 513d 8ee4 3ebe 18c7 62bc 7c7d cbbd
00000350: 8c0b 213e 9a51 c7bd 0d99 99bc 52cf 9cbd
00000360: 6287 673c a17c 0e3e 6a10 073e 7d7b b53c
00000370: 9a9c 2e3e 5575 7fbd c2ad 0abe 585f 3b3d
00000380: 9e50 6b3d 8cbd a63d 3574 83bc 66d4 02be
00000390: 941e 6b3d 9d53 323c d4b8 91bd 97b0 40be
000003a0: 6341 24be b81d 36be cd51 dabd 3297 dcbd
000003b0: dfcb b83c 5d33 30bc 8759 273e 933b 293e
000003c0: b117 e83d ac30 b7bd ff95 00be daf0 0d3e
000003d0: 8a3b babb 883f 3ebd 497b 3dbd 8bbd dd3d
000003e0: ba4e 7b3e 72f6 f5bc 39a4 c8bd 7d56 10be
000003f0: ded1 203e 9196 103e e353 523b f707 b4bc
-0.10014868 -0.0927298 0.12234465 -0.14659235 0.14031048 0.04823632 0.11313432 0.15951395
-0.052897 0.09324146 0.12878774 -0.103732616 -0.08772315 0.08828722 -0.17671114 0.037919566
-0.04643877 0.0080333995 0.103771195 -0.12357222 -0.13352458 -0.045675132 -0.02324059 0.13080288
0.113401674 0.100770906 -0.073094 0.08133655 0.16978766 0.048052453 -0.13281307 0.04431043
0.032470655 0.1850791 0.09215782 0.1519021 -0.11273084 -0.23895097 -0.0213581 -0.0130340615
-0.11640443 0.058522772 0.13951719 -0.11267861 -0.14336562 -0.05304606 -0.04924028 0.14181848
-0.15949811 0.0014670278 0.039781008 -0.039126348 0.20029049 0.11136668 0.12799692 0.014792278
-0.03626911 -0.14471003 0.12394614 -0.0071593765 -0.04548679 0.14800285 0.019284405 0.08257029
-0.09625227 0.023495702 0.034251593 0.09698579 0.06350049 0.14391756 -0.16572197 -0.006152606
-0.120054394 -0.033392962 0.070985734 0.17540187 0.035682704 0.21116063 -0.17923574 -0.06420725
-0.018935004 -0.0010754191 0.04453681 0.05370821 0.11295152 -0.15648241 -0.06338155 0.13928115
0.14064214 0.059805986 0.18991156 0.11302661 0.05488573 0.11119013 0.10718598 0.048600998
-0.12637678 0.033343386 0.14656992 0.15578377 -0.10727555 -0.14373447 0.1550313 -0.097150974
0.08642244 -0.057255603 0.07222571 -0.13654813 0.007563029 -0.009263619 -0.06917648 -0.009046573
0.16390443 -0.07641209 0.14233439 0.051534407 0.014245646 0.09350275 -0.12390244 0.097368345
-0.13839205 0.077225976 0.10269791 -0.14182252 0.113468885 -0.010358038 -0.0036676577 0.14003319
-0.06310209 -0.03332545 -0.1968589 -0.1765268 0.12312636 0.08163455 0.028486965 0.11569623
0.09498928 0.031686805 0.10116749 -0.12713411 -0.09008102 -0.11806362 0.016183358 0.15191361
0.04958128 -0.012824785 0.15342328 0.05551201 -0.013434745 0.1746973 -0.02748985 0.045898613
0.13790536 -0.079229064 -0.09868868 -0.09940157 -0.1317613 -0.0044040065 0.17847672 0.09362214
0.105709285 -0.08347044 0.046254013 -0.09988403 0.0435248 -0.029701376 0.07985959 -0.122396834
-0.056728456 -0.061848104 -0.011825479 0.15715015 0.061075795 0.103866786 0.091390505 0.14719798
0.058733348 -0.08603044 0.026585553 0.08946996 0.13173844 -0.064002976 0.12460166 -0.12190096
0.015489352 -0.10705178 0.114327 0.119805664 -0.076584086 -0.115374215 -0.024954068 -0.047082193
-0.06739165 0.021640662 0.107644565 0.03285809 0.087948695 -0.12869623 -0.102237895 0.19192013
0.11830506 -0.01663252 0.0005858747 -0.10678692 -0.021038055 -0.027027525 -0.05487375 0.024469007
0.05111592 -0.18641874 -0.013841413 -0.099360436 0.15727061 -0.09732361 -0.018749738 -0.07656731
0.014131399 0.1391473 0.13189855 0.02215361 0.17051926 -0.062367756 -0.13542846 0.045745224
0.05744993 0.08141622 -0.016046623 -0.12776336 0.05740221 0.010884193 -0.07115331 -0.18817364
-0.16040568 -0.17784774 -0.106601335 -0.10771026 0.02255815 -0.010754433 0.16342746 0.16526632
0.11332644 -0.0894483 -0.12557219 0.13861409 -0.005683367 -0.046447307 -0.046260152 0.10827168
0.2454175 -0.03002474 -0.09796948 -0.14095493 0.15705058 0.14119937 0.0032093457 -0.021976454

encoder.0.bias f4 [128]
00000000: 1aa3 503d 0287 1d3d 557b 0d3e 0e00 85bc
00000010: 8ef7 8c3c 233b af3d c7dc 8bbd 6a0a 973d
00000020: efb9 09be 2405 89bd 576b 83bd 27ca ae3c
00000030: ad54 efbd 9330 bbbc 9a1d 1bbe 878e 4cbd
00000040: 11ff 7bbc 7b2f e2bc 8d30 383b e9bf 273e
00000050: d874 69bd df80 413d d845 1c3e d626 3b3e
00000060: 8f15 e7bc 3066 f2bc a04f 863c 3ff6 ac3d
00000070: b38b f03d 2cd3 d53c 1cc7 b7bd 7263 f6bd
00000080: 41b8 2ebd 8e46 223e ab8f c7bd 8ad1 a13c
00000090: f2fe 0c3d 1ed9 2f3d 1978 e43d 3711 903a
000000a0: feeb a43d fa92 c13c 1fed 043e 92a6 17be
000000b0: 3914 093d c82e 11be 7d36 82bd a29f c03d
000000c0: 9ab1 86bd 8ed2 a1bc ec67 a33d 1ce9 a43c
000000d0: 222d 45bc 2e9f 303b 80b0 e43d 8262 173e
000000e0: c8be b3bd 7c58 d9bb 37fc d9bd 2aa0 b83d
000000f0: b2bb ca3d d8ad ea3d fc49 293e 040d 05be
00000100: 5383 8cbd bce6 f9bc cb79 043e 9445 c9bd
00000110: 4b55 8b3d eb89 3a3c ce04 5fbb f1ba f2bc
00000120: d8fa 1fbc 45a4 22bc 6570 20be 121a fe3d
00000130: 2b30 3d3d ccf5 0cbe 29a4 b33d dd2c 13be
00000140: 9824 1a3d e69c 59bd f4d7 fb3c 3b05 aabd
00000150: 74ee 81bd e039 87bd fa52 be3d 4404 0d3e
00000160: 90d3 f63d 3348 7b3d 4e81 d13d 9263 d8bc
00000170: 4f50 d9bd e16b f33d ab93 883d 7630 cbbc
00000180: 4341 eabd bd22 4e3c 1519 8e3d b625 00bd
00000190: e529 dd3d 157a a43d 9524 f5bd 20bd 873d
000001a0: 7e71 123e 1862 f13a fc60 40bd 2739 943d
000001b0: a1ea afbd 2323 943d 5b04 b53d f912 04be
000001c0: 0d5b 023c d697 f93d 07c7 2f3d 60fc eb3d
000001d0: 2746 b23d 4a7a be3d 82f2 683c af8f b83a
000001e0: bce0 773d feb9 85bd 6964 08bd 519c 06be
000001f0: 0f0f 1c3e 73d9 1c3e 83e1 2bbe 14ae bd3d
0.050936796 0.03845883 0.13816579 -0.016235378 0.017207887 0.08556201 -0.06829219 0.07375033
-0.13449834 -0.066904336 -0.06416958 0.021336628 -0.116860725 -0.02285031 -0.15148011 -0.049940612
-0.015380637 -0.027610531 0.002810511 0.16381802 -0.056996197 0.04724204 0.15261018 0.18276533
-0.028208522 -0.029589742 0.01639539 0.08445405 0.117453955 0.026101671 -0.08973524 -0.120306864
-0.042656187 0.15847227 -0.09744199 0.019753236 0.034422822 0.04293167 0.11155719 0.0010991459
0.080528244 0.023629654 0.1298108 -0.14809635 0.03346655 -0.14178002 -0.06358049 0.094054475
-0.065768436 -0.01975372 0.07978806 0.020130686 -0.012034686 0.0026950347 0.11166477 0.14783671
-0.08776623 -0.0066328626 -0.10643809 0.09014924 0.09899081 0.11458939 0.16532129 -0.12993246
-0.068609856 -0.03050553 0.12937085 -0.09827724 0.06803378 0.011385421 -0.0034029963 -0.029630156
-0.009764396 -0.00992686 -0.15667875 0.12407316 0.046188515 -0.13765639 0.087715454 -0.14372583
0.037632555 -0.053128146 0.030742623 -0.08301779 -0.063443094 -0.06602836 0.0929317 0.13771158
0.12052071 0.06134815 0.10229741 -0.026414666 -0.10611021 0.11885811 0.066687904 -0.024803381
-0.11438229 0.012581524 0.06938378 -0.031285964 0.107990064 0.08031098 -0.11969868 0.066278696
0.14301106 0.0018416075 -0.04696749 0.072374634 -0.08589674 0.07233264 0.08838721 -0.12897862
0.0079562785 0.121871635 0.042914417 0.11522746 0.08704787 0.093006685 0.014217975 0.0014080907
0.060517058 -0.06529616 -0.033298884 -0.13145567 0.1524012 0.15317325 -0.16785245 0.092617184

encoder.3.weight f4 [64, 128, 3]
00000000: e678 29bd 7ce3 c23b 037e 213d 7c92 26bd
00000010: 6202 2c3d 5999 d2bc d3c3 94bc 7ec9 073d
00000020: f3ff 1b3d 3d0a 91bb 270f d1bc 8f00 1ebd
00000030: 371f 5c3c db25 d7bc 3986 32bd 79a9 ee3b
00000040: 25ea a43c 50fa 873c 8f63 98bc 419f 05bc
00000050: d032 153d 3974 07bd d3c3 2e3d 5995 39bd
00000060: aa05 ffbc 5ab7 57bd feca f0bc ad37 a4bb
00000070: 009f 3bbc d423 c2bc f468 1dbd 345d 013c
00000080: fb82 a5bc 2c72 e73b 9cda d3bc 482b e63c
00000090: 79d3 a6bc bd05 053d b90e b13c e72a 853c
000000a0: bb7b e53a ff42 c8ba 3a07 f43c 2e36 723c
000000b0: 5b5f 43bd 2133 f4bc ae3d 0f3d 0270 0ebd
000000c0: 152a 16bd 4957 1ebd 50ae b53c 879e 97bb
000000d0: b6f8 d1bc ff5d 693c 74e1 c3ba b7f6 b23c
000000e0: 9aca 8bbc 57c0 3e3c 00ec 2dbc 9f34 4f3d
000000f0: 6ed2 263d ef62 e33a 13f0 50bd 6b44 f9bc
00000100: 8a29 a8bc 2e63 28bd d757 2c3c fd9a 393d
00000110: 598f 0f3d 234e 083d 781c 403d 7e11 1bbd
00000120: 66e5 383d 3123 093d 43be be3c f3f5 0b3d
00000130: df69 e13c 8d2d bcbc ac68 c7bc faf3 d0bc
00000140: 0555 26bb 3df1 f5bc 134c 30bd e324 fabc
00000150: 69b5 3ebd f75b f93b bbcd 1b3d 8840 3d3d
00000160: 938f 123d b51c 39bd 74a9 b53b 9e77 003d
00000170: 8c4a deba 4207 fbbb 5693 f53c 3aef 9c3c
00000180: 90f6 e73c e9a9 253d 710d cbb7 852d d6bb
00000190: cc13 953c df10 7b3b 3ed6 a7bc 99a0 f93c
000001a0: 181a 22bd 8a79 253c 9233 073d 0118 69bc
000001b0: 588e 223d 0723 b0bc 3409 99bc 3923 93bc
000001c0: 18b6 2c3d ce7d 08bd 5c96 e4bc 1a8d a23c
000001d0: 050d 0b3d c04d d8bb 66d2 32bc 3e4f 483d
000001e0: 315d 7dbc f1b1 773a b4c6 4f3d 96a5 f6bc
000001f0: 424e 19bc 6b0c 56bc 89e6 4cbd 7d44 423d
00000200: c8ac dbbc e485 eabc 9e12 7bbc 179c 793c
00000210: 8d05 4b3d d8bf 153d 61f6 2d3d d285 e73c
00000220: 0ba7 1bbd 0195 27bc 9722 a8bc ad6c 17bd
00000230: 31d1 9e3c 1277 f6bc d79d de3c c20e 193d
00000240: 5385 7ebc cae0 f23c 7b9f 4f3d 4989 0e3c
00000250: 579f e5bc d5b4 1ebd 7b9d 39ba 69de fbbc
00000260: 4a49 b63c a21f 043c ebdc f9bc f9c6 0e3d
00000270: 51d2 503d 289a 1dbd d44b eabc bab8 32bd
00000280: b7cb 2f3b 9afd 9f3c f4c6 db3c c959 39bc
00000290: c4e8 a23c a799 ad3c ffd5 7d3c 3f9a edbc
000002a0: aaac 31bd e469 81bc 5af3 c5bb cdf0 3a3d
000002b0: 2949 eb3b d176 233d 31f0 283d e59d 2c3c
000002c0: 759f 15bd 99eb d83c a573 033d 3ce2 10bd
000002d0: 4e12 ffbc 1879 dd3b 0280 86bc 3b51 563c
000002e0: 4af7 023d 338a c6bc 54fc f1bc 5fe7 e73a
000002f0: 697b 09bd dbd7 febc da56 993c b322 b63c
00000300: 9492 03bd 7db8 42bd 44d0 eabc af86 93bc
00000310: 42cd cebb c079 e3bc 9272 bd3b 4d73 a13a
00000320: 085a 21bd 805b 64bc 2a18 52bc 445a d93c
00000330: 70de 46bd ad97 103d e2d9 14bd 6a81 16bd
00000340: de92 dc3c a2d3 02bd 59cd 25bd ee68 253d
00000350: c967 03bd 023f acbc 4c23 153d 01ea a23c
00000360: d469 f8bc ed78 0dbd bb91 95bb 6bd1 173d
00000370: 3681 1dbc 5bab c93b 7418 f33c fad2 ed3c
00000380: 6552 d0bc e941 f53c e6b3 25bd 663e 3ebd
00000390: 55ad c7bc 03d3 14bd 044d 4abd 0639 193c
000003a0: d397 003d f247 47bd ba21 ca3c e1dc 253d
000003b0: 2526 563c a19a 283d c2b7 1b3b 89d9 ed3b
000003c0: ebbb 9ebc 143a cf3c e5c9 2fbd b315 ac39
000003d0: 2ab1 653c 4046 abbc 45d3 a93c 1500 52bd
000003e0: ecb3 253d cebe 013d ae7b 91bc ab6f 55bd
000003f0: 11fb 66bb fbe0 0d3c 469f b53c 0d61 0d3c
-0.041375063 0.0059475284 0.039426815 -0.040667042 0.04199446 -0.025707887 -0.018159783 0.033151142
0.03808589 -0.0044262693 -0.02551992 -0.03857475 0.013435177 -0.026263168 -0.043585036 0.0072833863
0.02013118 0.01659885 -0.01860216 -0.008155645 0.03642541 -0.033069823 0.04266722 -0.045308445
-0.03113063 -0.052665092 -0.02939367 -0.00501152 -0.011451483 -0.023698725 -0.03843017 0.0078957565
-0.020204058 0.007063171 -0.025861077 0.02809681 -0.02036451 0.032476176 0.021613466 0.016255809
0.0017508188 -0.0015278755 0.029788602 0.014783425 -0.04769836 -0.029809536 0.03497093 -0.034774788
-0.036661226 -0.03865746 0.022177845 -0.004627052 -0.02563129 0.014243602 -0.001494451 0.021846158
-0.017064381 0.011642537 -0.010615349 0.050587293 0.040728025 0.001734821 -0.051010203 -0.030428132
-0.02052762 -0.04111021 0.0105189895 0.045313824 0.035048816 0.033277642 0.04690215 -0.03785848
0.045140646 0.033480827 0.023284083 0.034170102 0.027516304 -0.022970939 -0.024341904 -0.025506962
-0.0025380265 -0.030022258 -0.0430413 -0.030535167 -0.046559725 0.00760984 0.038037997 0.04620412
0.035781454 -0.045193393 0.005543882 0.031364076 -0.0016959473 -0.0076607773 0.029977482 0.01915704
0.028315812 0.040445242 -2.4205745e-05 -0.006536188 0.018197916 0.0038309617 -0.0204879 0.030472087
-0.039575666 0.010099778 0.033008166 -0.014226914 0.03968653 -0.021501077 -0.018681146 -0.017961131
0.042165846 -0.0333231 -0.027903728 0.019842673 0.033947963 -0.0066010654 -0.010914421 0.048903696
-0.015464113 0.00094488176 0.050726607 -0.030108254 -0.009357037 -0.013064484 -0.050024543 0.047428597
-0.026815787 -0.028628297 -0.015324263 0.015234969 0.04956584 0.03655991 0.042471293 0.028262053
-0.0380011 -0.010228396 -0.020524306 -0.036968876 0.01938686 -0.030086074 0.027174873 0.03736759
-0.015534717 0.029648203 0.0506892 0.0086997235 -0.02803008 -0.038746674 -0.00070806564 -0.030745702
0.022251744 0.0080641825 -0.03050085 0.034857724 0.050981823 -0.038477093 -0.02860061 -0.0436332
0.0026824304 0.019530106 0.026828267 -0.01131291 0.019886382 0.021191431 0.015492915 -0.029004214
-0.043377556 -0.015797563 -0.0060409727 0.0456398 0.007180352 0.039908234 0.04124469 0.010535692
-0.036529023 0.02647953 0.03209271 -0.035372004 -0.031136658 0.0067588203 -0.01641846 0.01308089
0.031974114 -0.02423582 -0.029539265 0.0017692855 -0.03356496 -0.031108787 0.018718172 0.022233343
-0.03212221 -0.047539223 -0.028663762 -0.018008558 -0.0063110897 -0.027768016 0.00578148 0.0012317688
-0.0393925 -0.013937831 -0.012823144 0.0265323 -0.048551977 0.0353009 -0.0363406 -0.036744513
0.0269255 -0.03194011 -0.040479038 0.040383272 -0.0320814 -0.021026138 0.036410615 0.019886972
-0.0303239 -0.034539152 -0.0045644916 0.03706495 -0.009613326 0.0061544604 0.029674746 0.029031266
-0.025429914 0.029938655 -0.040454768 -0.046446227 -0.024374643 -0.03633405 -0.049389854 0.009351974
0.03139479 -0.048652597 0.024674285 0.04049385 0.013070618 0.04116309 0.0023760651 0.007258598
-0.019376716 0.025296248 -0.04291715 0.00032822564 0.01401929 -0.020907521 0.020730624 -0.05126961
0.04045479 0.031676106 -0.01775917 -0.052108448 -0.0035244862 0.008659597 0.022170674 0.008629096

encoder.3.bias f4 [64]
00000000: 0853 353d e36b aabc ddb3 2cbd 7678 edbc
00000010: 03e8 1dbd 07e4 1a3d 1b1f 2c3d 17e9 b8bc
00000020: 8310 8ebc 953c 48bd 3441 a63c 2038 2ebd
00000030: 5368 2b3b a95e 09bc e336 7f3c f370 353d
00000040: 70d8 efb9 0488 febc 7cc4 be37 fbf0 69bc
00000050: 67b5 ec3c 1568 bc3a ee36 6f3c d5d5 e4bc
00000060: 7036 34bd cfd5 b1bc 2687 4bbc 053c 053c
00000070: f82c 40bd d2f3 c73c 8a6c 80bc f69a 24bc
00000080: 0b7a 16bd eea6 a0bc a74b 4cbb ae8f e7bc
00000090: 046f eabb b4fb 5cbd ff1d 1a3d f417 40bd
000000a0: dd04 1fbc 7a6b cfbb 63e2 e93b b629 1abd
000000b0: 0005 353d 2459 2c3d 9333 39bd fb92 86bc
000000c0: 730f 3fbd 0d9e 393d 4f64 0b3d d980 f63c
000000d0: 3af0 193c cfcc 1bbd 3699 71bc 46e1 b93c
000000e0: 7a79 f8bc 1d5a 9ebc 52f9 8fbc 06f2 043d
000000f0: 70ec babc 4c06 a7bc fc76 d8bc 9ab5 893c
0.044268638 -0.020803398 -0.04216372 -0.028988104 -0.03855134 0.03781512 0.042021852 -0.022572083
-0.017341858 -0.0488859 0.020294763 -0.042533994 0.0026154711 -0.008384385 0.015577051 0.04429717
-0.0004574689 -0.031070717 2.274126e-05 -0.014278646 0.028895093 0.001437428 0.014600499 -0.027933994
-0.04399723 -0.021708397 -0.012422359 0.008131986 -0.046917886 0.024408255 -0.015676755 -0.010046711
-0.036737483 -0.019610848 -0.0031173022 -0.028266754 -0.0071543474 -0.05395098 0.037626263 -0.046897843
-0.009705749 -0.006329951 0.007137583 -0.037637435 0.04419422 0.0420772 -0.0452152 -0.016427508
-0.046645593 0.045316745 0.03403121 0.030090736 0.009395653 -0.038037118 -0.014746001 0.022690427
-0.030331362 -0.019330079 -0.01757494 0.032457374 -0.02281782 -0.020388745 -0.026423924 0.016810227

classifier.0.weight f4 [1024, 142]
00000000: 40f5 c93d 8d47 5fbd 759d d93c 7280 c7bc
00000010: 0ba2 3cbd 2aeb 643c 9469 22bd 7f10 f5bc
00000020: a6d0 95bc 7672 b4bc b602 693d d84f 4ebd
00000030: ddf2 a43d be28 41bd 16bb 9bbb ba27 fabd
00000040: 07f9 e93b 7275 963b 09f2 b63c 2273 32bd
00000050: b005 483c c3d3 9bbd 3424 c0bd 3249 813b
00000060: fae1 9abd 8079 603d 1355 a23d 9523 3abd
00000070: eb81 1a3d c34b fabb 9791 b6bc 36f1 043d
00000080: 1a72 95bb 7a22 03bb cb3b 513d 1ffa 393d
00000090: f1a8 743d 0f3c 8c3d be07 023d a710 e23c
000000a0: e412 e33c c93e bdbc bd82 b03d a94e 193d
000000b0: c8a3 a93c bab2 073c 08aa 23bd fdf9 1e3c
000000c0: 84d8 53bd 8ee2 ffbc fd11 91bd 0e40 773c
000000d0: 771f d43c 6952 b1bd ba58 f13c 9a62 21bd
000000e0: 9512 1fbb 64bf e6bc 63d6 033d 6501 96bd
000000f0: ecd5 e0b8 b4e0 83bc 7cea a5bd 85da 9bbd
00000100: 11c6 7cbd cd8a e8bc 7746 363d 1b53 1fbd
00000110: bfd8 8e3d 3715 2f3d 89a3 17bd d41c 243d
00000120: c414 84bd b317 8dbd 174b c0bd bcd6 083d
00000130: 57d4 8abb de3b 2ebd b0ed 6a3d ef77 363d
00000140: 10a6 13bb 9154 c93c 783d 7e3d 695c 6fbd
00000150: 704f 7d3c 0492 f63c bdff 97bc 86f5 0cbd
00000160: e214 393d aed2 b63d be5e cd3d 3cc1 96bc
00000170: 1219 ac3d a577 103d b6eb 5e3d 4e0d 393d
00000180: 61ca 90bd 009e 93bb 175f 8cbd 11ff bdbd
00000190: ad29 7f3c ee86 c7bd 06f4 a9bd d75b 76bd
000001a0: c2bc b5bd 1067 b9bd b4ed 4bbd 0bad 81bd
000001b0: dba2 30b9 63d8 92bd a9be e33c efca 88bd
000001c0: 7c63 84bc 4ef6 023d 5f70 c6bd cdd0 4b3d
000001d0: 3a8e 0f3c dadc 8fbd c5c8 42bc 20ef 89bc
000001e0: 41e8 12bc 0bf1 75bd 73ef c5bc d7a9 003e
000001f0: 04d5 43bc 41b0 a1bc 2a83 93bd bdef 95bd
00000200: a353 a7bd d3e8 763d 692a fcba d9f2 f03b
00000210: 8c62 84bc 655a 35bc 208c 663d 6358 243b
00000220: 5db5 87bd e99e a33d b54e d83d 2fa5 d63d
00000230: d6ff 973d 66f5 063e f73f 983d dd3a 773d
00000240: ba66 493d 73d7 b73c ddb8 af3d 00bb 78bd
00000250: 8d19 3fbd 34f1 26bd db40 ba3d 19bd 5bbb
00000260: c399 0b3d 92b7 2fbd 4af6 a43c 9522 5bbd
00000270: 8592 3a3d 51fa 983c 8e0b b53c b188 373d
00000280: 37f0 d13d 31ce 4a3d 2112 ad3c 0778 bc3d
00000290: aaa9 d4bc aa8c 78bd ea2c 39bd 16ec 123d
000002a0: fa42 2bbd 65f9 803d a043 94bd c51a 883d
000002b0: 0f12 a53d 513c c33c b8d9 4b3d 9b30 b13d
000002c0: 76f2 5a3d 0dfd 16bd fd09 5ebd f351 973c
000002d0: 9ec2 c8bc 1eaf 0f3d 6183 143d 796e 99bd
000002e0: a6fc 0b3d 9238 3a3d d045 e13c 09c5 7b3d
000002f0: e275 713c 2b70 823d 2b5e 78bb a05e 6b3c
00000300: df94 4dbd 8d90 43bd 6670 b73d d764 e5bc
00000310: bd83 3ebd 8c4a aabc accc 503c 7958 71bd
00000320: 81d6 40bd 6ca1 b13d 8013 83bd 9a7e a53d
00000330: 1f95 ae3d a526 41bd 0a1e a63d 65b1 37bc
00000340: 58c4 b23d 7884 1cbd cca4 5f3d 4f2b f6bc
00000350: 3f15 babd d685 36bd f8e6 d03c 2752 803c
00000360: 4155 b53c d0de ad3d 3da2 a03d db05 d5bc
00000370: 14ee 3abd f6b8 aa3c 575a a63d bdb0 09bd
00000380: cc77 b0ba b299 59bd ed45 47bd 689d 85bd
00000390: d6bc 9e3d 633b fabc 62ba 91bd 6a8b 713d
000003a0: 6167 f63a c88c 863d 2da4 ae3d 3426 40bd
000003b0: 1545 243d 1d82 4a3d 7253 b2bc 45cf 8e3c
000003c0: 473c 8cbd 2e43 0fba 5806 3d3d 890a a53c
000003d0: 8669 003d 29db 753d 1954 923d e2d5 6c3c
000003e0: be51 f53b 38ce 5a3d 5378 c93d 10df 8f3d
000003f0: e98a 94bc d588 bb3d f8f8 03bd 5371 2bbb
0.09861231 -0.054511596 0.02656434 -0.02435324 -0.046052974 0.013972083 -0.03965147 -0.029915093
-0.018287968 -0.022027235 0.05688735 -0.050369114 0.08054135 -0.047157995 -0.004752527 -0.122146085
0.007140282 0.0045916373 0.022332208 -0.04356683 0.012208387 -0.0760875 -0.09381905 0.003945493
-0.07562633 0.05480337 0.07926383 -0.04544409 0.037721556 -0.007638426 -0.02228622 0.0324566
-0.004560721 -0.0020009563 0.051082414 0.04540455 0.059731428 0.06847393 0.031745665 0.027595831
0.027718969 -0.023101227 0.08618686 0.03742853 0.02070798 0.008282358 -0.039957076 0.009703157
-0.051720157 -0.03123596 -0.07083509 0.015090955 0.02589391 -0.086582966 0.029461253 -0.039400674
-0.002427255 -0.028167434 0.032186877 -0.07324485 -0.000107209984 -0.016098358 -0.08101365 -0.07610039
-0.06171233 -0.028386498 0.044500794 -0.038897615 0.06974935 0.04274484 -0.037021194 0.040066555
-0.06449273 -0.06889286 -0.09389322 0.03340791 -0.0042367387 -0.042537563 0.057355583 0.04454797
-0.00225294 0.024576457 0.06207034 -0.05843774 0.015460834 0.030098923 -0.018554563 -0.034413837
0.04518593 0.08926903 0.10027836 -0.018402688 0.08403219 0.035270352 0.05442401 0.045178704
-0.07069851 -0.004504919 -0.068540744 -0.09277166 0.015573901 -0.09742533 -0.08298497 -0.06014618
-0.08873893 -0.09052861 -0.04978724 -0.063318335 -0.00016845336 -0.07170179 0.027800875 -0.066793315
-0.01616072 0.031973176 -0.09689402 0.049759675 0.008761937 -0.07024546 -0.0118886875 -0.016837656
-0.008966506 -0.06004433 -0.02416203 0.12564789 -0.011952642 -0.019737365 -0.07202752 -0.07321117
-0.08170249 0.060280632 -0.0019238713 0.0073531684 -0.016160272 -0.011068915 0.056285977 0.0025077097
-0.06626389 0.07989294 0.10561887 0.10480725 0.07421844 0.1317955 0.07434075 0.06035887
0.049170233 0.022441601 0.08580182 -0.060725212 -0.046655226 -0.040757373 0.090944014 -0.003352946
0.034082185 -0.042899676 0.020136971 -0.053499777 0.04554989 0.018674048 0.022100236 0.044808093
0.102508955 0.049513046 0.021126809 0.09202581 -0.025959808 -0.060681023 -0.04520885 0.03586968
-0.04181192 0.06297568 -0.07239461 0.06645731 0.08060085 0.023832472 0.04976818 0.08651849
0.053453885 -0.03686242 -0.054208744 0.018471694 -0.024506863 0.035079114 0.036258105 -0.07491774
0.03417649 0.045464106 0.02749911 0.061467204 0.014737578 0.063690506 -0.0037897925 0.014365822
-0.050190803 -0.047745276 0.08956985 -0.028002186 -0.046512354 -0.0207875 0.01274411 -0.058922265
-0.047079567 0.08673367 -0.06400204 0.08080788 0.08524536 -0.047155995 0.08111198 -0.011211728
0.08728856 -0.03821227 0.054600522 -0.030049948 -0.090860836 -0.04456123 0.02550076 0.015664173
0.022135379 0.08489764 0.078434445 -0.026003769 -0.045637205 0.02084015 0.081227 -0.033615816
-0.0013463437 -0.05312509 -0.04865067 -0.065241635 0.07750861 -0.030545896 -0.07115628 0.058970846
0.001879912 0.06569821 0.08527408 -0.046911433 0.040104944 0.049440492 -0.021768305 0.017432818
-0.068474345 -0.00054650276 0.046148628 0.020146625 0.031350635 0.06002346 0.071449466 0.0144552905
0.007486551 0.05341932 0.09837403 0.07024968 -0.018132644 0.09156958 -0.032219857 -0.0026160076

classifier.0.bias f4 [1024]
00000000: 8170 023e 9099 85bd c143 a93d 902c cb3d
00000010: eda4 0b3d 843f 93bd e4f6 573c f220 1bbd
00000020: e9dd 2f3d c02a d83d 4bc6 2bbd 5dc2 9abd
00000030: 9ae0 9b3d 140a 8fbd 597e 0d3d 8808 c7bc
00000040: 69a6 af3d d56f bd3c db85 663d 8e57 983d
00000050: 4a08 39bd f56e dabc d3bc ecbc 1fbb b23a
00000060: 2b81 b23d 2455 ea3c 4d32 45bd 33c5 96bc
00000070: 0e8f d63d 4924 e03c 39fb b7bd 5c9f 25bd
00000080: 6cb3 863c b6f2 013d f34e fabc 92ba 763d
00000090: 1939 f83b aa63 68bd 3b89 763d 8c9c 383d
000000a0: 18d0 5bbd 447e 413d 1f2b 03bd f26c a83d
000000b0: db5a d23d 6683 b53d ed1e 0b3d 09e0 82bd
000000c0: 1e00 443c f3ee 27bd 8ea6 9d3d 7ac7 363d
000000d0: 8c69 293d 3051 b4bd d34c 00bd 6a16 cc3d
000000e0: 6202 b5bd c731 473b fe05 73bd 1474 9ebd
000000f0: 0f9f 4b3d f66e a5bd b6b0 a2bc c0a4 3ebd
00000100: e3ee 833c 9d1a 9d3d 65a1 12bd 30b8 3ebd
00000110: 23c6 773c e2d0 803d 6dec 2abc e9fb b83d
00000120: 246a 72bd a652 a33d 3c8e aebc bde4 eabb
00000130: cd8d afbd 3b44 bd3d 15c0 a13d c426 cc3c
00000140: def1 bd3d ab0a 073d 6074 2cbb 6516 9f3d
00000150: ea0d f0bc c196 573d 8c39 2abd bba7 073d
00000160: 68d1 a1bb 1610 493d db12 d83d c03d 103d
00000170: 6397 d13d 3a68 903d 9df7 a43d bf78 e53d
00000180: 20e4 ce3d 1a25 f9ba eb2c 843d f735 933d
00000190: 9a89 5dbd 4dc7 76bd 52e6 d43d 2126 d3bb
000001a0: d4ea 63bd a7d2 8ebd 41bd a4bd 9295 763d
000001b0: 148e c93c 882b ffbc 5bb2 a1bd 4559 a93d
000001c0: d75e 84bd 69ec e93c 0c17 ba3d 5d64 493d
000001d0: 3643 12bd 970a 37bd a97c 90bd 0b37 513d
000001e0: afdc 03bc 055b 2ebd 4602 0e3c 147b 80bb
000001f0: 105a 64bd 995c afbc 6f1a ef3c 10c6 63bc
00000200: b051 8d3d 87a2 b43d ac73 a8bd f722 e6bc
00000210: f51f 8a3d 348a 0e3d 8901 0b3c 751b 683d
00000220: 8108 c0bb 4111 7fbd 796c 7ebc 5c3b 033c
00000230: 6d7e 673c fd64 fe3c 199b 4b3d 3b45 aebd
00000240: f8b0 9b3d a895 af3d ae2e bfbd 4301 6bbd
00000250: b0d0 0d3d 3d60 92bd fdf9 9cbc 3a2e b43d
00000260: e892 6f3d 0249 88ba 215b 833d 2b3a 2e3d
00000270: c2cf 8f3d 04d7 3dbd c0d5 9c3d b213 a53c
00000280: ca0a 4cbd 3da0 263d 9b1b a83d dba0 713d
00000290: e70e 61bc 7da6 e83d df53 d83d 09e2 52bd
000002a0: cb6e cebb cbae 92bd fa36 5dbd 28c6 27bd
000002b0: c13d 59bd dd17 8b3d 8de9 9fbd f848 0ebb
000002c0: 9d99 793d 247e b03d 7154 893c a509 2a3d
000002d0: 6ef0 9f3d 8442 8a3d 3209 8b3d 0224 793d
000002e0: 2fed b7bd cdca 423d ec1d 943d 444b 8f3d
000002f0: 1996 0e3d 8bf0 31bc 3bf7 c2bc 881c fe3c
00000300: d701 0cbd 9897 d73c 5c40 063d 659f 63bd
00000310: 1188 e43d 6a71 c23c 6a1a 283d be49 a6bd
00000320: aeeb b53c b1b6 9f3d e1f7 3d3d 9ea0 303d
00000330: bea1 74bd c669 29bd 320b cc3c 4e12 3d3d
00000340: fcbc afbd c31a 4cbd 0142 cb3c ea56 9c3d
00000350: 4322 a6bd 5a42 84bd cbea be3c d91b af3d
00000360: e5d6 563d bf89 c4bc 3605 96bc 4904 36bd
00000370: d426 d5bd e565 6b3c 9ddd b73d 85b8 903d
00000380: e0cb 70bd 7797 18bd a82d bb3c 1c5c 90bc
00000390: c1ca 9a3d e87f 0d3b aaa8 8ebd f587 943d
000003a0: e1ac 31bb 23a6 083d 91f1 173d d6c0 d8bd
000003b0: 5f48 06bd 7c32 f0bc d26b 9e3d bbf1 553d
000003c0: d758 103d 9524 8fbd c458 b43d 3a0c 3f3b
000003d0: 7a00 653d 2d98 bb3d 57f6 d73d 63fa 513d
000003e0: ac55 823d c047 a8bd 4247 233d ae3e af3c
000003f0: 6b5b 6abd 1f2a aabd 07bb a1bc a353 533d
0.1273823 -0.0652343 0.08264876 0.09920609 0.034092832 -0.07189849 0.013181422 -0.037873216
0.04293624 0.10555029 -0.041937154 -0.07556603 0.07611199 -0.06984344 0.034544323 -0.02429606
0.08576662 0.023124615 0.05628 0.07438575 -0.04517392 -0.026664237 -0.028898632 0.0013636089
0.08716043 0.028605051 -0.048143674 -0.018404579 0.10476504 0.027361052 -0.08983464 -0.04043518
0.016442977 0.031725608 -0.030555224 0.06023652 0.007575166 -0.056735672 0.060189467 0.04507117
-0.05366525 0.047239557 -0.032023545 0.08223905 0.102712356 0.08862953 0.03396504 -0.063903876
0.011962919 -0.040999364 0.076977834 0.04462383 0.041360423 -0.08804548 -0.031323265 0.09965213
-0.08838345 0.003039466 -0.059331886 -0.07736984 0.049712237 -0.08077805 -0.019859653 -0.046543837
0.016105121 0.07671092 -0.03579845 -0.046562374 0.015122923 0.06289841 -0.010432345 0.09032423
-0.059183255 0.07974748 -0.021308057 -0.007168381 -0.08571968 0.092415296 0.07897965 0.024920829
0.09274648 0.03296916 -0.0026314482 0.07767943 -0.02930351 0.052634005 -0.041558787 0.033118945
-0.0049382932 0.049087606 0.105504714 0.03521514 0.10233953 0.0705113 0.08055041 0.11204671
0.10102105 -0.001900825 0.0645388 0.07188027 -0.054086305 -0.06024866 0.103954926 -0.0064437543
-0.05564387 -0.069737725 -0.0804391 0.060201235 0.024603881 -0.031148687 -0.07895347 0.0826898
-0.06463402 0.028555112 0.09086427 0.04916798 -0.03570863 -0.044687834 -0.07055027 0.051077884
-0.008048221 -0.04256727 0.008667534 -0.003920922 -0.055749953 -0.021406459 0.02918741 -0.013902202
0.06900346 0.08820062 -0.08225188 -0.028092844 0.067443766 0.03479977 0.008484253 0.05666681
-0.0058603887 -0.062272314 -0.015528792 0.008009758 0.014129263 0.031054014 0.04970846 -0.085092984
0.076021135 0.085734665 -0.09335075 -0.05737425 0.034622848 -0.07147262 -0.019162172 0.087978795
0.05848971 -0.0010397735 0.06413866 0.042535942 0.070220485 -0.046347633 0.07657957 0.020150993
-0.049814977 0.04068016 0.0820839 0.058991294 -0.013736463 0.1135988 0.10562872 -0.051485095
-0.0062998286 -0.07162245 -0.054007508 -0.04096046 -0.05303741 0.06791661 -0.07808218 -0.0021710973
0.060937513 0.086178094 0.016763898 0.041513104 0.0780953 0.06750968 0.06788863 0.060825355
-0.08980786 0.047556687 0.0723227 0.06996778 0.034811113 -0.010860573 -0.02379953 0.031019464
-0.034181442 0.026317403 0.03277622 -0.055571932 0.11158765 0.02373572 0.041040815 -0.08119534
0.022207107 0.077985175 0.046378974 0.043121926 -0.059724562 -0.04136064 0.024907682 0.046160035
-0.08580968 -0.04983021 0.024811747 0.07633765 -0.08112004 -0.06457968 0.023305317 0.085502334
0.052451033 -0.023991464 -0.018313032 -0.04443768 -0.104077965 0.014367555 0.08977816 0.07066444
-0.05878818 -0.037253823 0.022848919 -0.017622046 0.075582035 0.002159113 -0.06965764 0.07252494
-0.00271111 0.033361565 0.03709561 -0.105836555 -0.032783862 -0.029320948 0.07735409 0.052232485
0.035240974 -0.06989399 0.08805993 0.0029151575 0.055908658 0.091598846 0.105450325 0.051264178
0.06363997 -0.0821681 0.03986288 0.021392193 -0.05721609 -0.08308815 -0.019742502 0.051593434

classifier.2.weight f4 [3, 1024]
00000000: 8ff6 be3d 4cb8 61bd c27b 333d 1078 2a3d
00000010: 7a4b 39bc d0c6 57bd 2a56 903d cb1a 8fbc
00000020: 9e58 d33c a110 ee3c bc1a 0ebd ba04 fb3c
00000030: de3c 193d 5317 a63c 9885 4b3d 81ff 5d3d
00000040: bb1a 5e3d ebdc a63c 096c de3d 95c1 393d
00000050: 4d7c d63d a003 18bd 6a0c 763d c7f4 3d3d
00000060: 2a26 df3c f109 0dbd dcb5 043d b37b bb3d
00000070: ef20 d83b 65b9 a5bb 8cff b73b b125 acbc
00000080: c2e7 5a3d b541 833d 9ed2 983c 07dd dd3b
00000090: 4153 bd3d afb2 a3bb 5945 d13c cab4 283d
000000a0: 632d 0f3c 26f1 1ebd f37d 8c3d fad1 583d
000000b0: 29df da3d bd4c 2c3d 6d62 05bc 1e6b 24bd
000000c0: 80fa 7abc b53f a43c 950d 073c fceb 2e3d
000000d0: cdc4 853b e26e 66bd cd4a b9bd 7de0 8a3d
000000e0: a96d 22bc 9e85 953d ff9b f5bc 26ec c2bc
000000f0: ba2a 963a f2df 91bc c25e 8d3d ebbc 723b
00000100: 6df6 8d3d 8603 943d dcd3 fa3d 4c15 e23d
00000110: a9dc d53c 20e6 753d bb2e 14bd 8ff9 953d
00000120: 76b9 1c3e a4ac 003d 3fee 483d 0e2d 863d
00000130: b0d3 203d 1023 8f3d 3a47 913d 8c1c 923d
00000140: fa7d 0b3d 4512 ecbc 8a96 20be 46fc c43c
00000150: 6502 2ebd 50e0 1a3d eacf a1bc f46c 06be
00000160: 1b94 123e 3125 cbbd d271 d13c 98a3 773d
00000170: 3113 a3bb b1c8 3a3d 6338 933d 0564 6c3d
00000180: bbc5 953d 00df 7d3d abff 01bc 0c9b 043e
00000190: 6550 35bd eb0f 54bd c2b3 113c bd4a 0ebd
000001a0: 0891 44bc f787 ea3a d736 ac3d 0f9f df3d
000001b0: ea17 203e f19c d53d 5d1f 43bc 5bf4 553d
000001c0: bd05 73bb 3d9c d33c 6488 813d ce1f 983d
000001d0: d4fe c8bb 4e2c 983c d1f2 2bbd 6cbb 3f3d
000001e0: 6c22 30bd dba8 2c3c ff7e a73d d295 663d
000001f0: 8352 0dbd 4362 063e 1e75 7d3d 519c 7a3c
00000200: 5def f53c c7a2 b23d 05e6 463c 2152 5bbb
00000210: 2f6f 983d 7662 6b3d 46c3 76bc ab1d 5e3d
00000220: 6805 323d bf4d 013c 0a5a 5dbc 1d71 edba
00000230: 97a3 42be be2d dd3d e6aa 07bb de7e 02bd
00000240: 1e81 143d c4cc 843d 951a 9ebc 7fdc d93d
00000250: 0faf 893d 4782 f1bc 459a 063e 27ae ac3c
00000260: 5c15 873d bb6e 1abe ba47 4a3d 2ec1 113d
00000270: 9841 693d fdcc b3bc 23ca 4f3d 8dd0 b03a
00000280: da74 f13c b67b ac3d 885d 153d 8265 ed3d
00000290: 9cc9 1fbc 5be1 ca3d cad5 363d c271 c5bc
000002a0: 61cb 41bc da86 143e 205e 3f3d 74b0 4d3d
000002b0: c282 5b3d 939f 0f3e 9c61 85bc 16be 733d
000002c0: 4302 1a3c b4a5 ad3d 4a3a d4bc e613 bc3b
000002d0: 68d9 623d bc6a 4d3d d99d bf3d 508d 6d3d
000002e0: cbcd 8abd d5bd b13b 7e30 ff3c d228 463c
000002f0: de8e 3f3d 4d35 e93d f9bb dd3c b10a 003b
00000300: 7baf 27bd 2c37 853d 74bc 143b 81ba 2bbc
00000310: 7553 3a3d 8f21 d63c a03b d3bb cb09 07be
00000320: e86b 293e ed7d bbbc 1d31 503d f2b8 2d3c
00000330: dec1 16bd 3bf7 40bd 2f15 1a3e c67f 17bc
00000340: 16e5 a93d 8375 91bc 7977 383d eb1f 1abe
00000350: cb13 853b a5bf 2f3d 9f09 9cbc c200 f63c
00000360: acd3 143d 649c e6bc 826b babc 5b5a acbc
00000370: c421 7d3d 6233 94bb 06fc 003c 3ab8 13bd
00000380: 7a82 993b 8ae7 853d cc67 2c3d 2df7 513a
00000390: 5797 a03d af35 0bbe 6213 7fbc 2b2b 073d
000003a0: dceb 6b3d e287 2d3b 9380 6e3d c542 e73d
000003b0: 7100 863d 0f04 a7bd 4814 873d d3a8 aabb
000003c0: 3065 f9bc fd03 e3bb 1daf b73d 32cb 7abb
000003d0: 8a78 583d 5e7f 913d 3e7a 963d 8d04 c13b
000003e0: 1127 ecba e629 01bd b97d a2bc a198 583d
000003f0: a014 ccbb e785 97bc 25e9 eabc 0042 bebc
0.09324371 -0.0551074 0.043819197 0.041618407 -0.011309499 -0.052679837 0.070476845 -0.01746883
0.025799092 0.029060664 -0.034693465 0.030641902 0.037411563 0.020274794 0.04968795 0.054198746
0.05422471 0.020369014 0.1086045 0.04535063 0.10472927 -0.037112832 0.060070433 0.046376016
0.027239878 -0.03443331 0.032399997 0.09154453 0.006595723 -0.005057501 0.0056151804 -0.021014066
0.053443678 0.06409017 0.018655118 0.0067707333 0.09244395 -0.004995666 0.025545763 0.04118804
0.008738848 -0.038804196 0.068599604 0.052934624 0.10687096 0.04206537 -0.008141142 -0.040141217
-0.015318513 0.02004991 0.008242984 0.04270552 0.0040822984 -0.05625809 -0.0904747 0.06781099
-0.00991384 0.07300876 -0.029981611 -0.023794245 0.0011456825 -0.01780698 0.06902839 0.0037038873
0.069317676 0.072272345 0.1224744 0.11039218 0.026106196 0.060033917 -0.03617738 0.0732299
0.15305123 0.031414643 0.049055334 0.06551562 0.03926438 0.069891095 0.070936635 0.07134351
0.034055687 -0.028817305 -0.15682426 0.024046075 -0.042482752 0.037811577 -0.019752461 -0.131275
0.1431431 -0.09919203 0.025566969 0.06045875 -0.004976653 0.04560155 0.07188489 0.057712574
0.07313105 0.061980247 -0.007934491 0.1294977 -0.044266123 -0.051772993 0.008892955 -0.034739245
-0.011997469 0.0017893304 0.08408897 0.1091901 0.15634122 0.10430325 -0.011909333 0.05223499
-0.0037082278 0.025831336 0.063248426 0.07427941 -0.0061338935 0.018575814 -0.041979615 0.0468096
-0.043001577 0.010538305 0.081785195 0.056295224 -0.034502517 0.13123421 0.06187927 0.015296058
0.030021364 0.087224536 0.012139802 -0.00334657 0.074430816 0.057466947 -0.015061205 0.054227512
0.043462187 0.007892071 -0.0135102365 -0.0018115375 -0.19007717 0.1079974 -0.0020701229 -0.03185927
0.03625595 0.064843684 -0.019299785 0.106377594 0.06722843 -0.029481066 0.13144787 0.021079136
0.06595871 -0.15081303 0.04938481 0.03558462 0.05694732 -0.021948332 0.050729882 0.0013489887
0.029474664 0.084220335 0.03646615 0.11591627 -0.009752657 0.099062644 0.04463748 -0.024102096
-0.0118282745 0.14504567 0.046720624 0.050217107 0.053591497 0.14025716 -0.016281895 0.059507452
0.009399953 0.08478871 -0.0259067 0.0057396768 0.055383116 0.050150618 0.09356279 0.057996094
-0.06777533 0.005424241 0.031151053 0.012094693 0.04676711 0.113871194 0.027067171 0.0019537623
-0.040938836 0.06504664 0.0022695335 -0.010481478 0.045489747 0.026139049 -0.006446317 -0.1318733
0.16545069 -0.022887195 0.050828088 0.010603176 -0.03680598 -0.047110777 0.15047143 -0.009246772
0.08295648 -0.01775623 0.045035813 -0.15051238 0.0040611974 0.042907376 -0.019047556 0.030029658
0.03633468 -0.028150745 -0.022756342 -0.021039179 0.06179978 -0.004522727 0.007872587 -0.036064364
0.0046847435 0.06538303 0.042091176 0.00080095493 0.07841366 -0.13594697 -0.015568586 0.033000153
0.05759798 0.0026478698 0.058228087 0.11292032 0.06543053 -0.08155071 0.06595665 -0.0052081137
-0.030443758 -0.0069279657 0.08968947 -0.0038268087 0.05284933 0.071043715 0.073475346 0.005890435
-0.0018017014 -0.031534098 -0.01983534 0.052879933 -0.0062280446 -0.018496467 -0.028675625 -0.02322483

classifier.2.bias f4 [3]
00000000: 019b d1bb d1af 0a3c 2345 88bb
-0.0063966517 0.008464769 -0.0041586324
