Weights/LSTMClass10.pt (torch, 935927 bytes, 12 tensors)

lstm.weight_ih_l0 f4 [400, 13]
000000 48 dd b3 bb 5a 36 41 be d0 cd 3b 3c 53 e1 cc 3d
       -0.0054890253 -0.1886839 0.011462644 0.10003915
000010 35 72 52 3e 08 9a 6a bd bc 76 56 3c cc 6b 11 ba
       0.20551379 -0.057275802 0.013089832 -0.0005547374
000020 52 f7 db bd e8 b9 1d be cf 1d 04 be e3 71 dd bd
       -0.10740532 -0.15402949 -0.12901996 -0.10812738
000030 81 ae 02 3f cf 53 b6 bc b7 b2 8c bb 12 53 0f be
       0.5104752 -0.02225676 -0.0042937654 -0.13996533
000040 2c ef 96 3f 3e 44 82 bd b4 ae b4 3d 42 ca 23 bc
       1.179174 -0.063606724 0.088223845 -0.0099969525
000050 be 99 b3 bc 0e 50 e2 3d 99 f6 d9 bd b0 6c 6a bd
       -0.021923896 0.110504255 -0.10642738 -0.05723256
000060 fa b8 85 bd 89 14 1e 3f 8e 3f 3a 3d 64 4e c9 bd
       -0.06529422 0.61750084 0.045470767 -0.09829405
000070 bf 42 a7 bd 08 d6 eb 3d b8 c3 91 be 04 d0 04 be
       -0.08167028 0.115154326 -0.28469634 -0.12969977
000080 30 49 76 bd 47 23 67 3a cc 7a 73 bd e8 f8 80 bd
       -0.06012839 0.00088172074 -0.05944328 -0.06297475
000090 de d5 ce bd be 6e 38 3e 97 92 32 3e 30 c3 13 be
       -0.10099386 0.18010995 0.17438732 -0.14429927
0000a0 e5 46 dc bd e8 bc 57 3d 79 21 88 3f 67 6e e0 3e
       -0.107557096 0.05267039 1.0635215 0.4383423
0000b0 9c 71 92 bd 54 4c 1a 3b 82 2a 9d bc 82 87 6e bd
       -0.071505755 0.002354403 -0.019185308 -0.0582347
0000c0 80 d9 74 3d 2c 68 af 3d 2c 76 a9 3c 48 7a 42 3f
       0.059777737 0.08564791 0.020686232 0.75967836
0000d0 78 eb d7 bd b4 36 4d 3d 34 67 a0 3d 86 41 4f be
       -0.10542959 0.050100997 0.078321844 -0.20239839
0000e0 65 6d 89 3e 92 9a 8f 3d b0 4b fe bd 58 87 df 3b
       0.26841274 0.07011904 -0.1241678 0.006821554
0000f0 9f fc 33 bd 20 f8 86 bd 31 7b be bd 0b 04 a1 bd
       -0.04394209 -0.06590295 -0.09300841 -0.07862099
000100 ab 51 ca 3e 9c f3 5a 3d 1e 6f 55 3d 34 3d 33 bd
       0.39515433 0.05345498 0.052107923 -0.04375954
000110 16 8a bd 3d 91 04 12 be 3e f0 6d bb 98 e7 08 3e
       0.092548534 -0.14259554 -0.0036306526 0.13369596
000120 60 f8 23 3d a7 97 88 3d 13 0d 4b bd 60 f7 ff 3d
       0.04003179 0.066695504 -0.049573015 0.12498355
000130 ca e7 9f 3d 33 e4 88 3f 17 77 3f bd 0e 8f 59 bd
       0.07807882 1.0694641 -0.046744432 -0.053114943
000140 24 43 ad bd 2c 4c c1 3e da 7e bb 3d 24 8f 0c bd
       -0.08460072 0.37753427 0.091550544 -0.034316197
000150 23 bc 3b be bb 3a fc 3c 1b 7e 2f be 21 8c 88 39
       -0.18333487 0.030789724 -0.17137949 0.00026044346
000160 1b a8 ef bd 28 be 49 be 72 c4 6c 3e e7 06 84 be
       -0.117019854 -0.19701445 0.23121813 -0.25786516
000170 5f cd f2 bd f2 13 d3 bd 72 ea f6 3d c0 0d 2b bf
       -0.11855578 -0.10306539 0.12056436 -0.66817856
000180 8f 14 d9 bc 79 36 9e bc f1 25 d9 3a a5 e6 a6 bd
       -0.02649906 -0.019313084 0.0016567094 -0.08149461
000190 ac fd 00 3d 02 05 b3 bd 93 49 43 bd f3 4c 09 3e
       0.03149192 -0.087411895 -0.047677588 0.1340826
0001a0 97 4a d0 bc f4 c3 a5 bb 2f 8d cd 3d e1 e0 d8 3e
       -0.025426192 -0.00505876 0.10036694 0.4235907
0001b0 30 a2 64 be 6b 24 35 bd af 33 3d 3d 25 d0 2a bd
       -0.22327495 -0.044224184 0.046191867 -0.04170241
0001c0 61 17 e0 3c 26 ad 32 3d fb 42 5e 3d c5 f1 c2 bd
       0.027354898 0.04362216 0.054263096 -0.0951877
0001d0 f1 b4 87 3e db da 11 3d 99 f1 17 be 8d 3d 07 be
       0.26505235 0.035609107 -0.14838256 -0.13207074
0001e0 31 08 3d bd b3 e8 63 bf 23 f9 19 be 02 bc f3 bd
       -0.04615039 -0.89026946 -0.15036444 -0.11901094
0001f0 3c 4f 03 be a0 a1 6c bd 85 9c f0 3c 9d da d7 bd
       -0.12823194 -0.057771325 0.02937151 -0.10539744
000200 8d 81 dc 3d e4 fb 85 3d d9 6c de bd aa b9 b4 3a
       0.10766897 0.06542185 -0.10860605 0.0013788242
000210 30 86 b8 bd a5 5c 15 3f 79 59 eb be 31 f7 0e be
       -0.09009969 0.5834449 -0.459667 -0.13961484
000220 23 fe 3a bd 06 09 6c bd 7d 6f 21 bd 90 a7 3e be
       -0.04565252 -0.057625793 -0.039412964 -0.18618608
000230 6e ae 2f be 81 85 43 bd 22 b6 2d be 4c 01 e6 bc
       -0.17156383 -0.04773474 -0.1696401 -0.02807679
000240 28 3e 94 3e 4e 81 0f 3e ec 5b 3d be f6 26 dd bd
       0.2895367 0.1401417 -0.18492097 -0.10798447
000250 f8 05 99 3e 39 f0 8a 3e ad e6 0d 3e e2 bd 1c 3e
       0.29887366 0.271364 0.13857527 0.1530681
000260 94 20 07 3e 8c b0 2a 3e 40 cb 7a 3e 8e f0 86 3f
       0.13196021 0.1666891 0.24491596 1.0542161
000270 a4 31 85 3d 3a c7 00 3e 81 7d 1e 3d ac f4 c9 3e
       0.06503609 0.12575999 0.03869391 0.39444482
000280 1a 9a bf 3e cd 5a 06 3e d5 e0 26 3e 2b c4 a0 bd
       0.37422258 0.13120575 0.16296704 -0.07849916
000290 91 eb c0 3a 2e 13 43 3e 00 56 f2 3d 9d 75 d4 bd
       0.0014718642 0.19050285 0.118328094 -0.103739955
0002a0 af b7 bf 3f 35 1d 4c 3d 3f 0d 4f bd dc b3 3b be
       1.4977931 0.04983254 -0.05054974 -0.1833033
0002b0 c8 fb 76 bd 37 b2 fb be 37 f6 2c bd a6 d8 c9 bd
       -0.06029871 -0.49159405 -0.042226996 -0.098557755
0002c0 64 d3 c4 bd a5 6b 18 be b3 ca 09 be 0c 57 00 be
       -0.09610632 -0.14884813 -0.1345623 -0.12533206
0002d0 d4 b3 19 be 8b 80 ea bc b1 40 19 bd d0 61 28 3d
       -0.15010005 -0.028625747 -0.03741521 0.041108906
0002e0 34 60 da bb 4c 4b 86 3f 2d 60 89 3d b9 c2 8e bd
       -0.0066643003 1.0491729 0.06707797 -0.06970734
0002f0 e9 b7 c5 bd 06 84 39 3c cb f1 a5 bd 98 14 85 bd
       -0.09654219 0.011322981 -0.08102759 -0.064980686
000300 de 1a 3f bd 84 c9 0a bd b4 5c 9a 3d 5e 82 1d bb
       -0.046656482 -0.033883587 0.07537213 -0.0024034004
000310 d6 78 7e bb ac 3b 79 bd 06 74 1e 3f 7e 79 48 3f
       -0.0038829348 -0.060847923 0.6189579 0.7831038
000320 6f 8c 0b bd fb 3b bd bc c6 19 ed bd f5 77 84 3d
       -0.034069475 -0.02309989 -0.115771815 0.064681925
000330 0b 43 a6 bd ab 9d ad bd 73 b9 06 bd 50 29 87 3f
       -0.08118256 -0.084773384 -0.032891702 1.0559483
000340 5c 2e f1 3d 24 80 5f bd 3e 42 55 be bf 0e 84 bd
       0.117764205 -0.054565564 -0.2082605 -0.06448125
000350 38 84 88 3e b4 3f 46 be 0c 05 d5 bc 36 72 22 bd
       0.26663375 -0.19360238 -0.026003383 -0.0396597
000360 35 2d 29 3d cb 3b c8 bc 1d b1 13 bd 36 60 a3 be
       0.04130288 -0.024442574 -0.03605758 -0.3190934
000370 3f 32 61 3f 6a 87 ca bc 55 80 06 bd 5e 14 43 be
       0.87967294 -0.024722774 -0.03283723 -0.19050738
000380 d2 e2 66 3e 2e af c2 3e 02 90 64 b9 b6 55 a9 bc
       0.22547463 0.38024276 -0.00021797422 -0.020670753
000390 5a 70 ee bc 7b c0 4d bd 97 09 b3 3c 3f 6f 80 3c
       -0.029106308 -0.05023239 0.021855159 0.015678046
0003a0 3f 83 ea bd 9b 79 2b 3f 69 3e 23 3d 8a 0b 63 bd
       -0.114508145 0.6698243 0.03985444 -0.055430926
0003b0 5a 92 71 bd d7 c0 17 3f d5 91 33 3e 7b b9 7a bd
       -0.058977462 0.59278625 0.175361 -0.061212044
0003c0 db f8 b8 bd d6 bf 2a be a8 80 a4 bc ff b9 77 bd
       -0.090318404 -0.16674742 -0.02008088 -0.060480114
0003d0 a4 ab 2e be 56 7c 38 be 80 c7 16 3f 5e 37 17 3b
       -0.17057663 -0.1801618 0.5889816 0.0023073773
0003e0 25 d0 65 be cf d1 42 be 38 53 a8 3a af 27 13 3b
       -0.22442682 -0.19025348 0.0012842184 0.0022454073
0003f0 bd 88 46 be 0f 12 35 be 03 77 95 bd e6 e5 1f be
       -0.19388099 -0.1768267 -0.0729809 -0.15615043

lstm.weight_hh_l0 f4 [400, 100]
000000 04 bc 1e 3d 57 db dc 3c 19 ad 14 be a5 8a 2d 3d
       0.038753524 0.026960058 -0.14519157 0.04236855
000010 6a c2 27 be a1 88 be bd 18 95 6f 3d e9 27 af 3d
       -0.16382757 -0.09303404 0.058491796 0.08552534
000020 c9 49 a9 3d 34 4e ca bd 5b 5c 7b bd 33 e2 f1 3d
       0.082660265 -0.09878197 -0.061367374 0.11810722
000030 73 ec 93 3e 05 f6 2c bd 78 f3 7c bd 7c f9 bf bd
       0.28891334 -0.04222681 -0.061755627 -0.09373757
000040 ac ff 1f bc 39 42 11 3e f7 27 a3 bb bb 53 ba 3c
       -0.009765547 0.14185418 -0.0049791294 0.022745004
000050 52 84 82 3d 8f bb 87 bc 25 79 1f 3d 8b 66 04 3e
       0.06372894 -0.016568927 0.03893389 0.12929742
000060 e5 82 34 3d a1 56 a2 3d d4 32 2f be 17 e9 f8 3c
       0.044070143 0.079266794 -0.17109233 0.030384583
000070 2c 8e 13 bd 47 42 b4 bd 16 9b b8 bc fe 0b 90 3e
       -0.036024258 -0.08801704 -0.022534888 0.2813415
000080 e8 29 e5 3d 51 b9 ac 3d 45 ed f0 3c 8a cd d3 3d
       0.111896336 0.08433784 0.029410014 0.10341938
000090 c3 0b 32 bd 94 1a 0c 3e 8c 03 14 be 4c 1c e6 bb
       -0.043468248 0.13682014 -0.14454478 -0.007022416
0000a0 52 a6 17 be 38 b7 b6 3c fd 12 04 3c b5 52 66 3d
       -0.1480954 0.022304162 0.008061168 0.05623122
0000b0 1b cd 0b be 36 14 02 be 03 b0 8a 3d 86 57 08 3e
       -0.1365246 -0.12703022 0.06771853 0.13314638
0000c0 be 8d 44 bd 99 1b 5a 3d 37 4b 93 bc 8d e8 2c 3d
       -0.04798674 0.053248975 -0.017980201 0.042213965
0000d0 ed 78 9a 3d 76 b9 3b 3c 16 4e 60 3d 74 15 57 3d
       0.07542596 0.011457792 0.05476197 0.052510694
0000e0 f3 32 64 be e2 32 a1 3d e6 55 9f bd df a1 e1 3d
       -0.2228506 0.07871033 -0.07780056 0.110172026
0000f0 d9 55 4f 3d d8 12 45 bd 6c d9 ea bd 4f 36 27 bb
       0.05061898 -0.048113674 -0.11467251 -0.0025514548
000100 a4 e2 c7 3d 17 a8 b6 bd ba d6 85 3d 65 17 2a be
       0.09760025 -0.08918779 0.065350965 -0.16610487
000110 69 09 07 bd 09 d8 a0 bd 55 36 91 bd eb 8f c2 3d
       -0.03296796 -0.078537054 -0.07090441 0.095001064
000120 06 28 f7 3d d7 0f b8 3c 94 dd 56 3b f9 12 c1 3d
       0.12068181 0.02246849 0.003278588 0.09427447
000130 a3 27 4e bc 45 79 c7 3d 01 ba b9 3d 96 70 bd bd
       -0.012582692 0.09739927 0.090686806 -0.0924999
000140 d6 a7 0e 3e 7f 5c a6 3d e1 73 33 bd 71 02 8e bd
       0.13931212 0.08123111 -0.043811683 -0.069340594
000150 39 5e 07 3e 56 b4 d4 3d db 3f 6e bc bf d5 dc bc
       0.13219537 0.10385959 -0.0145415915 -0.02695739
000160 39 84 0f bd bc 6e b6 3d 61 6d 08 be 80 da da bd
       -0.035038207 0.0890784 -0.13322975 -0.10686207
000170 b2 6f 92 3d b3 39 44 3d e4 91 39 3c 1d 57 6a 3d
       0.071502104 0.04790659 0.011326287 0.057211984
000180 43 f0 c9 bd 7f 60 49 3e e3 a3 2c 3e 3d c6 12 be
       -0.098602794 0.19665717 0.16859393 -0.14333434
000190 42 d0 e1 3d 4a 30 73 be fb 3f d5 3d 5c b3 a0 3d
       0.1102605 -0.2374889 0.10412594 0.0784671
0001a0 13 8c 0c 3e 5a 65 99 bd a2 b1 57 3d 6f bf 0a bd
       0.13725309 -0.074900344 0.05265964 -0.03387397
0001b0 60 14 65 bd 73 49 8c bd 32 9f 63 bd 1e 40 8e 3c
       -0.055927634 -0.06849947 -0.055571742 0.017364558
0001c0 95 0a 9e 3d ff b8 58 3d 7a 48 a9 bd 3e e4 eb 3c
       0.07716862 0.0529108 -0.08265777 0.028795358
0001d0 ed 6a 95 be 54 36 39 3e 9f 7a 9a bd 63 f9 2c be
       -0.2918314 0.18087131 -0.07542919 -0.16892008
0001e0 98 97 88 bd f2 1e 16 be d8 82 83 bd 40 c7 d2 39
       -0.06669539 -0.14660242 -0.06421441 0.00040202774
0001f0 b5 1f c3 3d 31 19 a8 bd 1b 6b 0d bd a6 40 1f be
       0.09527532 -0.0820793 -0.03452597 -0.15552005
000200 fc a0 88 bc f7 3c 3c 3d 6b e5 d7 bd f8 63 db 3d
       -0.016678326 0.045956578 -0.10541805 0.10712427
000210 27 26 f1 3b 35 42 c7 bd 05 b4 6d 3d 14 4b 3a 3c
       0.0073592844 -0.09729425 0.058033008 0.011370439
000220 ac 56 44 bc a4 f6 f3 bd 8d 58 dc 3d 69 1c 08 3e
       -0.011983555 -0.11912277 0.10759077 0.13292088
000230 01 5a 9e 3d c1 20 ec 3d b0 e2 2a 3d c6 a5 9d bd
       0.07732011 0.11529685 0.041720092 -0.076976344
000240 27 2b 42 be b3 59 fc bd 47 f8 2c bd 08 21 22 3d
       -0.18961774 -0.12321796 -0.042228963 0.039582282
000250 ca a4 cc bc f9 e4 73 3d 60 d7 b2 bd 13 dd bc bd
       -0.024980921 0.059544537 -0.08732486 -0.09221854
000260 7b 0a 13 be 07 60 f9 3c 2e 57 4b 3d ab 5c ba bd
       -0.14359467 0.030441297 0.049643688 -0.09099706
000270 27 e9 6e 3d 71 6c d9 bd 4f 93 1a bd b0 29 42 be
       0.05832782 -0.10616387 -0.03773814 -0.18961215
000280 b1 53 f1 3d 8e 54 46 bd da 95 de 3d 1b 21 f6 bd
       0.11783541 -0.04842048 0.10868426 -0.12018033
000290 d7 bd 2b be 6e 90 0a 3e cf f0 95 bd d2 2f ed 3d
       -0.16771637 0.13531658 -0.07321321 0.115813866
0002a0 b3 c9 53 bd 03 30 0e be 31 7f 8d 3d 40 09 33 bd
       -0.051706027 -0.13885503 0.069090255 -0.043709993
0002b0 09 0d 48 bd 48 6e a6 3e 4b f6 1a 3d c0 22 ae bd
       -0.048840556 0.32506013 0.03783254 -0.08502722
0002c0 0c 02 47 bd 5b 05 d8 3c 41 a2 62 3e 54 58 7b be
       -0.048585936 0.026369741 0.22132207 -0.24545413
0002d0 83 02 69 3d 2e 26 05 bd 25 38 ac bd 8f f1 99 bd
       0.05688716 -0.032507114 -0.08409146 -0.07516777
0002e0 a1 bf a6 3e c8 4c d1 3d a1 b6 be 3c ee 58 92 bd
       0.32568076 0.10219723 0.023280444 -0.07145868
0002f0 ff 0d 92 bd db 24 67 bd 69 e3 97 bd ec ab 97 bb
       -0.07131576 -0.056431632 -0.07416422 -0.004628649
000300 4a c2 3d be d8 88 88 3d a7 2c 81 bc d1 d2 b5 3c
       -0.18531147 0.06666726 -0.015768362 0.022195252
000310 18 23 5e 3d 9b fd 8c 3d 3d 82 6a 3c 5b 0b 9c bd
       0.054232687 0.06884309 0.014313278 -0.076193534
000320 9c 5b 98 3d 61 fe d6 bd 27 ab 0f 3e 3b 27 79 3c
       0.07439348 -0.10497738 0.14030133 0.015207107
000330 79 38 be bc 83 df 08 3e 63 c3 8a bd d5 f4 e1 3c
       -0.023220288 0.13366513 -0.06775548 0.027582565
000340 ed 5a 1e bc 35 5a ec bd 25 74 f5 3d 31 5c 0e 3d
       -0.009665233 -0.11540643 0.119850434 0.03475589
000350 eb 98 eb bd f3 0f 25 3c 08 87 85 3d f9 6f 9f bd
       -0.11503776 0.010074603 0.06519896 -0.07785029
000360 a2 92 5e 3d e5 ca 10 3d 5c 9c 90 bc 93 af 62 bd
       0.05433906 0.035349745 -0.017652683 -0.055343222
000370 b8 e6 f5 bb 91 f5 d0 bd cd 1b 99 3d eb c9 54 bd
       -0.0075043105 -0.10203088 0.07476006 -0.051950376
000380 76 99 ac bc f7 c6 db bd 66 66 0a 3e 60 c5 31 be
       -0.02106927 -0.10731309 0.13515624 -0.17360449
000390 82 fa ef bd 4d 83 a3 3b 01 48 d9 bd cf 3f 58 3d
       -0.117177024 0.0049900175 -0.10609437 0.052795228
0003a0 f3 56 37 be 44 84 39 3a 4c 0a 3c bd 64 53 1d be
       -0.17904262 0.0007076899 -0.045908257 -0.15363842
0003b0 84 e9 19 be 57 23 59 bd fa 2d e6 3d ab e6 37 bd
       -0.15030485 -0.05301222 0.11239238 -0.044897716
0003c0 79 e1 fc bc 9a fb b7 3d 15 3c 5e be 4e 90 5c 3d
       -0.030869232 0.08983536 -0.21702607 0.053848557
0003d0 6a 58 4d 3d cc b8 ac bd 9a f2 18 3e 15 20 95 bd
       0.050133146 -0.08433685 0.14936295 -0.0728151
0003e0 92 69 2b 3c 3b b6 31 be 0c 8c 04 3d 0c 14 92 3d
       0.010462182 -0.17354672 0.03236012 0.0713273
0003f0 bd f4 06 3e 6f f1 26 be c8 ed a9 3d 72 83 1a be
       0.13179298 -0.16303037 0.08297306 -0.15089205

lstm.bias_ih_l0 f4 [400]
000000 e8 2d 55 bc 0e 60 c1 bd 89 04 f1 bc d7 2d 47 bd
       -0.013011433 -0.09442149 -0.029421108 -0.0486277
000010 43 ff ba bc a1 0c 28 3c ed fa 20 be 0b 68 da bd
       -0.022826796 0.010256917 -0.1572072 -0.10664376
000020 20 46 1f 3d 85 19 a7 bd 1c 95 be bd 8c e2 38 3e
       0.038885236 -0.08159164 -0.09305784 0.18055171
000030 1e 30 36 3c 56 44 9c bd ad e8 32 bc 71 38 d3 bc
       0.0111198705 -0.076302215 -0.010919732 -0.02578375
000040 06 e9 c1 bd 2a 7a 9f bd e5 19 dd bd 08 de 06 be
       -0.09468274 -0.07786973 -0.107959546 -0.13170636
000050 50 41 af bd 59 c8 96 3d 33 1e e4 3b 08 0f 60 bd
       -0.08557379 0.07362432 0.006961608 -0.054701835
000060 bc 5d 59 3d ed 0f d6 bd 26 98 7d 3e 04 fa 5b bd
       0.053067908 -0.10452256 0.24765071 -0.05370523
000070 48 17 45 bd 38 0e 64 3b 77 cf 9d bd c5 3a 9c bd
       -0.048117906 0.0034798514 -0.077055864 -0.07628397
000080 4a f7 ca 3d 8b 7a 46 be 81 74 83 bd 85 2c 13 3e
       0.09910448 -0.19382684 -0.06418706 0.14372452
000090 61 d6 60 3d 30 a9 ed bd c2 4e 98 bd 56 7a ad bd
       0.054891948 -0.116045356 -0.07436897 -0.08470599
0000a0 78 14 26 3d 79 2f 4d 3d 62 aa eb bd 5a cd c1 bc
       0.040546864 0.0500941 -0.11507107 -0.02365749
0000b0 1d b6 ef bd b3 46 6e bd 73 50 be bd c0 09 c3 bd
       -0.11704657 -0.058172893 -0.09292688 -0.09523344
0000c0 c2 43 7b bd 2b 18 a5 3d 2c 4c 5c be e4 f1 91 3c
       -0.061343916 0.0806125 -0.21513432 0.017815538
0000d0 f5 a2 59 bd b6 f5 64 bc 9f 88 a5 bd 14 5d 99 bd
       -0.053133924 -0.013974598 -0.08082699 -0.07488456
0000e0 72 1d c7 bd 86 a2 54 bd 08 aa 32 be 55 f8 87 bc
       -0.09722413 -0.051912807 -0.17447674 -0.016597906
0000f0 74 0c 87 bd 9c a1 e4 bc a0 c7 21 3e 4b e0 33 bd
       -0.06594172 -0.027909093 0.15798807 -0.043915074
000100 74 6f 15 bd 47 7e 9c 3d 53 79 36 bd e4 7b 44 3e
       -0.036483243 0.07641273 -0.044549298 0.19187886
000110 f9 ab f5 bd 26 f9 0d bc fa 6c ed bd d2 2b 42 3e
       -0.11995692 -0.008665359 -0.11593051 0.18962029
000120 95 5e 72 3b 05 0b c3 3d 42 75 23 3e 62 d8 4d bc
       0.0036982645 0.09523586 0.15962699 -0.012563797
000130 cc 48 15 3e 88 8f fd 3c 55 30 4f 3d c2 59 35 3d
       0.14578551 0.03095223 0.050583202 0.044275053
000140 b4 b8 e3 bd b5 fe 33 bd 08 3b 66 bd 9c f9 7d 3c
       -0.11119214 -0.04394408 -0.05620864 0.015501406
000150 71 0d 3f bd d9 c9 3f 3e 65 a2 99 bd b2 c6 6e bd
       -0.046643678 0.18729343 -0.075016774 -0.05829496
000160 2c a6 a9 bc dd 80 d6 bd 88 80 b6 bd e9 79 81 bc
       -0.02070912 -0.104737975 -0.08911234 -0.015805202
000170 be d6 13 bd be ac 55 3c 92 e8 42 be 0a 8d e4 3d
       -0.036093466 0.013041673 -0.19034031 0.111597136
000180 dd e2 76 bc 0b df f3 bd f1 38 e8 bd b8 83 4b bb
       -0.015068737 -0.119077764 -0.11338986 -0.0031053852
000190 82 ac 82 3c bf 53 fc bc 7a c8 d8 bd c9 57 22 be
       0.015951399 -0.030801652 -0.10585113 -0.158538
0001a0 99 48 d8 3d 84 49 12 3e 5d 49 4d 3d 25 7d 4b bd
       0.10560722 0.14285856 0.050118793 -0.049679894
0001b0 95 a2 d5 bc f0 b4 f1 bc b9 85 36 bd 96 d6 24 be
       -0.026078502 -0.029505223 -0.04456112 -0.16097483
0001c0 39 f1 13 be a1 d6 03 3d 45 fa 9d 3d 0d 97 29 bd
       -0.14447488 0.032187108 0.07713751 -0.04140382
0001d0 8e d8 86 3d 4d 41 02 bd e1 bb a4 3c 74 39 1d 3b
       0.06584273 -0.031800557 0.020109119 0.0023990544
0001e0 ea 87 c1 bd 56 60 2d be 99 80 1a 3e d9 cc 4c 3b
       -0.09449752 -0.1693128 0.15088119 0.0031250028
0001f0 6d fe 88 3d 99 e1 4d 3d db 1f c1 bd 90 4a 02 bd
       0.06689153 0.050263975 -0.09429904 -0.03180939
000200 b0 da 24 be d6 0f 56 3d d9 3d 19 bc 6b 10 b3 3b
       -0.16099048 0.052261196 -0.009353125 0.0054646037
000210 e8 1e d4 bd d2 0e ff 3c bf 7b 83 3d 03 86 04 be
       -0.103574574 0.031134997 0.06420087 -0.12941746
000220 0d 75 e1 3c 0b ec d1 bc 5a ec 8e bd 82 12 7d 3c
       0.027521634 -0.02562525 -0.06978674 0.015446307
000230 b4 68 08 3e d9 0c e9 3d c7 0e f1 3d 1e f8 18 3c
       0.13321191 0.113794036 0.11770397 0.0093364995
000240 b2 34 23 3e b1 24 c8 3d 50 8f 04 be 2e 8c 00 bd
       0.1593807 0.09772623 -0.12945294 -0.031383686
000250 56 5b 27 bc 0e af f6 bd a7 b3 09 be 1b af fe 3d
       -0.010214647 -0.12045108 -0.13447438 0.124357425
000260 a5 87 45 bd 30 f3 2c 3e 03 06 ba 3d 39 de 90 3d
       -0.048225064 0.16889644 0.09083178 0.070736356
000270 8b 2d 84 bd be 1c b4 3a d1 46 37 bd b2 87 87 3d
       -0.06453999 0.0013741476 -0.04474527 0.06617679
000280 a1 87 ae bd 39 70 41 3c 51 4c 9c 3d 7f 40 a2 bd
       -0.08521963 0.011806541 0.07631744 -0.07922458
000290 44 cb 1e 3c e2 ff 79 bc 3f 08 07 be 22 92 21 bd
       0.009692017 -0.015258761 -0.1318674 -0.039446004
0002a0 55 7e 17 3e 7f 39 29 bc e0 ab e1 3d 06 14 ce bd
       0.14794286 -0.01032865 0.11019111 -0.10062413
0002b0 6a 61 f1 bc 82 ca be bd c3 db 64 be 00 d5 25 3d
       -0.029465396 -0.09315969 -0.22349457 0.040486336
0002c0 79 bb 13 be 2d 90 ae bd 19 b6 2d bd 90 ba 82 3d
       -0.14426984 -0.08523593 -0.04240999 0.0638324
0002d0 8a 15 66 bd 03 6b d5 3b 43 2a 30 3b 2d 5f 24 3d
       -0.056172885 0.006513001 0.0026880659 0.04012983
0002e0 3d 24 22 3e f4 cb a2 bd 70 8d ca 3d 42 4d 5d bd
       0.15834136 -0.07949057 0.09890258 -0.054028757
0002f0 83 90 6a bd 41 cd ed bd b6 5e 92 bb 95 02 fa bc
       -0.057266723 -0.11611415 -0.004466857 -0.03051881
000300 c1 6c 39 bd 41 cf 4a bd af 31 bf bd 8e 4f 12 3d
       -0.04526973 -0.04951406 -0.09335648 0.0357204
000310 28 52 a6 3d 63 14 5e bd d2 b7 6e bb 9e 9c 98 3d
       0.08121139 -0.05421866 -0.0036425483 0.07451747
000320 c9 d5 5a 3b 16 a0 68 3d 08 a2 b9 3c ab 51 4c 3c
       0.0033391586 0.056793295 0.02266027 0.012470643
000330 49 61 1e 3d d7 2e 32 bd 22 da 35 3c f9 20 c3 bd
       0.038666997 -0.0435017 0.01109937 -0.095277734
000340 50 3a b8 3d 19 fb 86 bd 80 c0 d5 bd f6 f7 02 bd
       0.08995497 -0.06590862 -0.10437107 -0.031974755
000350 3f c6 cf 3c 00 76 9a bd 0b 24 84 3d 90 43 73 3d
       0.025363086 -0.07542038 0.06452187 0.059390604
000360 61 63 8f bd a9 3a 31 3d 22 be 12 bd c4 8d 50 3c
       -0.07001377 0.043268833 -0.035825856 0.012729112
000370 de b2 a5 bd d7 8b 46 bd 80 c0 58 bd b1 56 81 3d
       -0.08090757 -0.048473205 -0.052917957 0.06315363
000380 f3 dc 50 bd 32 26 b1 3d ca 66 ae bd 8e b7 19 3d
       -0.050991964 0.08649863 -0.08515699 0.037528567
000390 a9 5b 82 3d 18 0e 8c bd 2c 01 95 3d 29 ec 9e 3c
       0.06365139 -0.06838626 0.07275614 0.01939972
0003a0 b6 df 51 bd fc d5 8b bd 23 a9 45 bd 09 7b cd bc
       -0.051238738 -0.06827924 -0.048257004 -0.025083082
0003b0 db 17 ef bd de 1c f4 bc b5 48 7d 3d ed 7a 32 bd
       -0.11674472 -0.029798921 0.061836917 -0.043574262
0003c0 7b 18 0d 3d 4a e1 b1 3d 43 0e 0b 3c 29 dc 6c 3d
       0.034447175 0.086855486 0.008487287 0.05782715
0003d0 ce 2e 8f 3d 91 a5 3e 3c 44 3f 8b 3d 8a 6a ea 3c
       0.06991349 0.011636154 0.06799176 0.028615255
0003e0 66 b5 bc 3d f0 d6 5a 3d 7c eb 94 3d 57 3d 48 bc
       0.092142865 0.053427637 0.072714776 -0.012221656
0003f0 20 0e 8d 3d ed 84 ec bc 03 df 17 3c be 77 84 bd
       0.0688746 -0.028871978 0.009269479 -0.064681515

lstm.bias_hh_l0 f4 [400]
000000 d9 52 e6 bd 72 dd 57 3d e1 a1 a0 3d 8c 60 e5 3b
       -0.11246271 0.05270142 0.07843376 0.0070000347
000010 4b 06 36 bd 6c 46 15 bd bf 68 29 be 66 c9 d9 bd
       -0.044439595 -0.036444113 -0.16543864 -0.10634117
000020 a8 88 51 bc 1c 66 ca bd ec a8 03 bd 6a 57 3f 3e
       -0.012788929 -0.09882757 -0.03214352 0.1868569
000030 ff 5d 73 3d f4 ec ee bd f5 cf 61 bd 74 3e dc bc
       0.059415814 -0.11666289 -0.055129964 -0.026885249
000040 65 99 fd bd 16 76 ba bd 0b e4 6d bd e4 a8 fc bd
       -0.12382773 -0.09104554 -0.058078807 -0.12336901
000050 b5 dc f7 bc d5 6e 5c 3c 0a ee 68 3d bd a6 2b be
       -0.030256609 0.013454159 0.056867637 -0.16762824
000060 c1 00 c3 bd 98 2b c3 bd 80 f3 82 3e 09 71 d6 bd
       -0.09521628 -0.09529799 0.255764 -0.104707785
000070 e3 1d f4 bb 3a 63 29 bd 4f 85 fa 3c 4a 95 89 bd
       -0.007449852 -0.041354395 0.030581145 -0.06717928
000080 f0 11 16 3d 71 79 13 be 99 e4 76 bc e1 7b 26 3d
       0.0366382 -0.14401795 -0.01506915 0.040645484
000090 6e 47 e1 bc 53 38 d6 bd b7 75 de bd 68 24 0f 3d
       -0.02749988 -0.10459962 -0.10862296 0.03494683
0000a0 c9 c6 32 bd 7d 32 6d bc 79 6c b0 3b 4a bd fb bb
       -0.043646608 -0.014477369 0.0053840247 -0.007682477
0000b0 20 9a 25 bd 74 7e 31 bc 74 87 f5 bd d0 0e b9 bc
       -0.04043019 -0.010833371 -0.11988726 -0.022590071
0000c0 53 a1 c5 bd ac 5d 29 3e 64 0f c6 bd d4 b0 a3 3d
       -0.09649911 0.16539639 -0.09670904 0.07992712
0000d0 8d 44 06 bd df 2a 88 bc ef 18 ae bd bd db a7 3d
       -0.03278022 -0.016622005 -0.085008495 0.081962086
0000e0 69 66 13 be 59 a5 ca bd 1b b7 a6 bc 3d 74 82 bd
       -0.14394535 -0.09894819 -0.020350983 -0.06369827
0000f0 30 e6 48 bd 9e 73 79 3c 92 dd 66 3d dd 57 05 be
       -0.04904765 0.015225319 0.05636365 -0.13021798
000100 1a 7e dc bd 97 12 db bd a6 04 d0 bc 60 27 4a 3e
       -0.107662395 -0.10696905 -0.025392842 0.19741583
000110 49 cb 0c be 20 da 72 bb 56 27 8f 3c a4 18 28 3e
       -0.13749422 -0.0037056282 0.017474812 0.1641565
000120 e8 be 03 bd 92 41 40 bd c8 48 e8 3d f3 11 c1 3b
       -0.032164484 -0.046937533 0.11342007 0.0058920323
000130 6a bb 3b 3e 36 1e e5 3b 02 dd 9f 3d e4 39 ca 3d
       0.18333212 0.006992127 0.07805826 0.09874323
000140 f3 61 ab 3b 84 e3 3a bd 7a 2e cd 3c 60 72 05 3d
       0.0052301823 -0.045627132 0.025046576 0.03257978
000150 be 55 d8 bc 76 7f dd 3d 82 0f 83 3d e1 d6 a3 bd
       -0.026408073 0.10815327 0.06399442 -0.07999969
000160 c1 cb 18 bd f0 44 a7 3b 04 0a e3 bc 0a 50 9f 3d
       -0.03730369 0.0051046535 -0.027714737 0.07778938
000170 19 ec 80 bd 9c b1 cd bd ae d8 f0 bd 7b a3 ae bc
       -0.06295032 -0.10043642 -0.11760078 -0.021318188
000180 1e 0a ab bd 5f b5 82 bd 7b 62 07 be f7 c2 bb 3c
       -0.08351539 -0.0638225 -0.13221161 0.022920115
000190 8f 2b 6a bd b6 f7 f3 bd 32 80 14 be ec 56 c8 bc
       -0.057170447 -0.119124815 -0.14502028 -0.02445551
0001a0 2e 72 d6 3d 30 c2 fe 3d 82 05 bd ba d9 22 00 3c
       0.10470997 0.12439382 -0.0014421197 0.007820808
0001b0 45 86 56 bd fe 03 f3 bc 06 de de bd bc 05 b4 bd
       -0.052374143 -0.02966499 -0.10882191 -0.08790156
0001c0 13 05 f6 bd d6 ae 4d 3d 32 8a 8d bc f5 b4 43 bc
       -0.120126866 0.050215565 -0.01727781 -0.011944999
0001d0 9b 84 87 bd 1b 12 4c bd 77 47 f6 bd 21 98 ea bd
       -0.06617089 -0.049821954 -0.120253496 -0.114547975
0001e0 b9 e0 75 bd 54 fd 35 be dd 8a 24 3e 05 7b c8 bd
       -0.060028765 -0.17772418 0.16068597 -0.09789089
0001f0 61 77 1d 3e 70 c8 fd bc 77 bd 9a bd 46 a9 e7 3d
       0.1537757 -0.030979365 -0.07555669 0.11311583
000200 f6 4e ea 3b 2f 93 c8 3d ce 33 89 3d b2 6d 9f 3d
       0.007150526 0.09793698 0.06699334 0.077845946
000210 d8 60 d2 bd 88 de bb bd 74 c4 97 3d f4 d0 5a be
       -0.10272378 -0.09173304 0.07410517 -0.21368772
000220 c4 2f 1c 3d 45 a0 12 be 58 d5 aa 3b 73 db 96 3d
       0.03813149 -0.1431895 0.005213421 0.07366075
000230 32 ed 0d 3e aa 0c 4e 3c e1 17 f6 3c 1f 45 99 bd
       0.13860014 0.012576262 0.030040683 -0.07483887
000240 86 2b 32 3e b8 17 14 3e 80 27 e5 39 02 f6 b9 3c
       0.17399415 0.14462173 0.00043707713 0.022700313
000250 4a fb 3f bc b2 43 ca bd bc 6b dc bd 7a ae b4 3d
       -0.011717627 -0.09876193 -0.10762736 0.08822341
000260 03 f1 94 bd 2d 72 70 3e cd 9b 3a bd a6 e7 91 3d
       -0.07272532 0.23481055 -0.04555874 0.071242616
000270 2b 76 27 be b8 2e 26 be b1 f3 47 bd 83 61 88 bd
       -0.16353671 -0.1622876 -0.048816387 -0.06659224
000280 3f a0 49 bd db a9 7e 3d 91 ca 9a 3d 98 ac b7 bd
       -0.04922509 0.062173706 0.07558168 -0.089684665
000290 2d e1 88 3c 6c cf 2f be 0e 95 3f 3b 91 65 2c bd
       0.016708935 -0.17168969 0.002923313 -0.04208905
0002a0 3d 8e 03 3e 36 b1 9e 3c fc 57 d3 3c e3 e8 3e bd
       0.12847228 0.01937161 0.02579879 -0.046608817
0002b0 78 dc 06 3d 0c bd 27 3d 9f 9d 48 be 6c d6 d4 3d
       0.0329251 0.040951774 -0.19591378 0.1039246
0002c0 ce 5d 91 be f4 ed 4b bd ed ef 13 be ba 3d 92 3b
       -0.2839188 -0.049787477 -0.14446993 0.004462925
0002d0 04 27 3d bd 6c b0 16 3c 34 f0 06 3d f5 74 0e 3e
       -0.046179786 0.009197336 0.03294392 0.13911803
0002e0 9f e0 3c 3e 26 c3 81 bd a0 49 6b 3d d6 16 34 bc
       0.18445061 -0.0633605 0.05744326 -0.010991773
0002f0 92 9b 8f bd 26 d7 b3 bd f1 6d e6 3c 67 b6 4c bd
       -0.070120946 -0.08781271 0.028128596 -0.04997864
000300 99 f4 86 bd 4d 09 a8 3c 8c f0 19 be 9e bc 4d bd
       -0.06589622 0.020512247 -0.15033168 -0.050228707
000310 2d 17 1d bd 90 31 49 3c b9 f4 2b bd 2a e6 d3 bc
       -0.03835218 0.012279883 -0.041981433 -0.025866587
000320 02 37 37 3d 91 a6 50 3d 15 3f 20 3d b5 dd b6 3d
       0.044730194 0.0509401 0.03912266 0.08929006
000330 f6 88 8e 3d b3 63 38 bd 71 97 11 3d a6 8b 8a 3c
       0.06959717 -0.045016956 0.035544816 0.016912293
000340 97 11 35 bc 4e be f3 3b d2 40 62 bd 0c e1 88 3d
       -0.011051557 0.0074384576 -0.0552376 0.06683549
000350 9f af b4 3b 35 4e c6 bd 83 48 e5 3a 66 01 78 3d
       0.0055140997 -0.096828856 0.0017492924 0.06054821
000360 2d af 8f 3d 55 48 35 bc 27 f4 1b 3d c1 3b 9f 3d
       0.07015834 -0.011064609 0.03807464 0.07775069
000370 bc b9 2d 3b 1e 65 8c bc 56 b2 26 3d aa ab 9f 3d
       0.0026508411 -0.01713806 0.04069742 0.07796414
000380 9a 7f 87 3d bb 9a a9 bd 64 d7 87 bc 45 30 09 bd
       0.06616135 -0.082814656 -0.016582198 -0.0334933
000390 ca f0 6a bd 35 ce 7e bb ab 76 2a 3d b3 e5 0e 3d
       -0.05735854 -0.0038880233 0.041617077 0.034887027
0003a0 6e cb 5d bd 21 e6 9c bd ce 7f ea bd 60 25 7c 3d
       -0.054149084 -0.07661081 -0.11450158 0.06155908
0003b0 38 ce 1b 3d 43 c6 01 3d f9 44 5a 3c 6d d7 71 3d
       0.038038462 0.031683218 0.013322108 0.059043337
0003c0 ff 97 b2 3c 65 ba 01 bd 0a 7a 7c 3d 06 be 67 bc
       0.021800993 -0.0316719 0.061639823 -0.014144426
0003d0 25 77 68 bd a7 bf ac bd 3f 96 8d 3c 04 40 3d 3d
       -0.05675425 -0.08434992 0.017283557 0.04620363
0003e0 a8 61 b7 bd a3 04 8c 3c 79 48 b8 3d 95 e1 00 bd
       -0.08954173 0.017092055 0.08998198 -0.03146513
0003f0 51 4d 78 3d c3 8f a0 bd 5a c4 09 bd 3e 54 0a 3b
       0.06062061 -0.0783992 -0.03363452 0.002110734

lstm.weight_ih_l1 f4 [400, 100]
000000 5c a8 c9 39 9d b5 18 3e 18 2b 26 be 10 ed 66 3d
       0.00038463145 0.1491303 -0.16227376 0.056378424
000010 d9 e0 36 3d 11 2a d4 3d ac 96 9b 3d 88 fe 5e 3e
       0.044648025 0.10359586 0.07597098 0.21776783
000020 bb 4f 6b be 8d 36 df 3d ad a0 dc 3d 7e 7e 65 3d
       -0.22979634 0.108990766 0.10772834 0.056028835
000030 c3 56 a8 bd b0 c3 80 3d 9b 7a fe bc ca 16 0b be
       -0.082196735 0.062873244 -0.031064322 -0.13582912
000040 4d d5 be bc 21 49 d6 3d de 54 ee 3d af b8 8f 3c
       -0.02329507 0.10463167 0.11637281 0.017544119
000050 06 76 4a be 9d bf cb 3c 6d b4 75 be 74 3e 87 bd
       -0.19771585 0.024871642 -0.23994608 -0.06603709
000060 f4 71 36 be 8a 0c 0b 3e 26 97 34 3e e8 9b f6 bd
       -0.17816907 0.13579002 0.17635784 -0.120414555
000070 62 d0 9b 3d 94 a6 fd bc ee 41 86 3c a8 66 9c 3d
       0.07608105 -0.03096322 0.01638886 0.076367676
000080 9d b5 10 3e 3e d0 bc bc 55 37 35 3e 01 e5 a3 bd
       0.1413178 -0.023048516 0.17696889 -0.080026634
000090 ac 74 d7 3b c5 3a 51 be d5 e3 fa bd e3 b5 06 3e
       0.0065751877 -0.20432575 -0.12250487 0.13155322
0000a0 73 70 8a 3d 80 8d 8d 3d a1 fb 0c be d1 2c 27 be
       0.06759729 0.069117546 -0.13767864 -0.1632569
0000b0 01 ce 7f 3d 99 a0 35 3d 51 fd a6 bd 25 40 b1 3d
       0.06245232 0.04434261 -0.08153785 0.08654813
0000c0 7b 55 ef bd 2e ba 92 be dd da 3b be 6b ac 8d bd
       -0.11686226 -0.2865767 -0.18345208 -0.06917652
0000d0 b0 59 db 3c d3 51 c8 bd de db ba 3d 31 75 86 bd
       0.026776165 -0.09781232 0.091239676 -0.06565321
0000e0 48 fc 01 3d c5 98 e3 3d 19 75 ff bd 6e ea f0 3d
       0.031734735 0.11113123 -0.124735065 0.11763464
0000f0 77 63 cd 3d a6 3c e7 3d 52 d3 8f 3d 79 5c 82 3d
       0.10028737 0.11290865 0.07022728 0.06365294
000100 c6 70 4f 3e 17 af 30 be 2f f0 5f 3e ab 3f 86 be
       0.20257863 -0.17254291 0.21868967 -0.2622045
000110 c8 9c e0 bd 0f 47 83 bb 2e 27 b7 3b d1 e5 0f be
       -0.10967404 -0.0040062736 0.0055893874 -0.14052512
000120 57 0b b0 3d 9b 2d 5d bd 3e 7b b0 3e 7e 8c 17 be
       0.08595913 -0.05399857 0.34469026 -0.14799687
000130 84 f6 ee 3d 13 54 2f bd b0 f2 81 3e db f0 83 be
       0.11668113 -0.04280479 0.25380468 -0.25769696
000140 09 c8 f3 bd 35 51 ea bc a2 4e af bd d7 f5 07 bd
       -0.11903388 -0.028603176 -0.0855992 -0.033193436
000150 57 84 2d 3d ba bf 86 3e 98 ce 47 3e 9f c3 93 be
       0.042362537 0.2631815 0.19512403 -0.28860185
000160 ac 0a 26 3e dc 94 65 3d 15 46 b0 bd 10 49 3b be
       0.16215008 0.056050166 -0.08607117 -0.1828959
000170 78 b2 36 bd c4 fe fb bd 7b a0 3f bc 6e 70 f2 bd
       -0.044603795 -0.12304452 -0.011695976 -0.118378505
000180 1b 7b d4 3d 63 70 5b 3c 27 ac 64 bd ad 2f 1b 3d
       0.10375043 0.013393494 -0.05582824 0.037887264
000190 c9 8d 77 3c ed 7b 40 be 95 c3 23 3e 1f 59 a5 3d
       0.015109488 -0.18797274 0.15992577 0.08073639
0001a0 dd ec 13 3e 06 78 52 bd 52 f6 64 be 8d 54 29 be
       0.14445825 -0.051383995 -0.22359589 -0.1653616
0001b0 0a 55 c0 bd 40 28 ff 3b c4 92 fa bd e0 8f eb 3c
       -0.0939122 0.0077867806 -0.122350246 0.028755128
0001c0 4d 0d 19 be f2 70 18 be 21 fc 97 be 54 32 b8 3e
       -0.1494648 -0.14886835 -0.29684547 0.35975897
0001d0 dd 95 0e be b2 1d 5b 3e cc 80 b6 bd ff 68 a4 bd
       -0.13924356 0.21398047 -0.08911285 -0.08027839
0001e0 a8 5f a6 bd 4b 92 28 be e5 1b 6b 3d 82 65 e5 3d
       -0.08123714 -0.16462056 0.05739965 0.11201002
0001f0 9d 1d 21 be d0 04 00 bd 4b c1 03 3e 3b 15 8e 3d
       -0.15733953 -0.03125459 0.12866704 0.06937643
000200 dd db 99 bc a6 04 bc bd 49 fb 12 3e 51 35 e9 3d
       -0.018781597 -0.09180574 0.1435367 0.113871224
000210 36 0e a4 be b8 7f ae 3d cb db b3 3d 66 ae e8 3d
       -0.32042092 0.08520454 0.087821566 0.11361389
000220 9a d2 bb 3a 81 68 3f 3d fd e4 35 bd 60 53 75 3d
       0.0014329732 0.046730522 -0.044407833 0.059893966
000230 2c 93 3f bd 8c c5 f1 3d 5e 4a bd be a8 4a 9b be
       -0.046771213 0.11805257 -0.369708 -0.30330396
000240 a9 0f a8 3d 23 81 f1 3c 00 f1 2e 3e ae ae 8d 3b
       0.08206112 0.029480522 0.17084122 0.004323802
000250 e8 2b 93 3c 93 54 6a bd 10 f0 c6 3d 4f f0 b2 3d
       0.017965272 -0.057209563 0.09713757 0.087372415
000260 b9 4d e4 3d 0e 03 67 bd c2 35 21 bd 2f 05 4c be
       0.11147637 -0.056399398 -0.039357908 -0.19923852
000270 7b b2 61 be 3f 7f 6c 3e ac aa 32 3e ae c4 c3 bd
       -0.22040741 0.23095416 0.17447919 -0.09558998
000280 a7 d7 35 bd 8b 38 85 bd aa 74 d4 3d e5 2c 2f be
       -0.044395115 -0.06504925 0.103738144 -0.1710697
000290 e2 aa 08 be 23 6a 1a bd af e8 a9 bc fb 0f 11 be
       -0.13346437 -0.037698876 -0.020740835 -0.14166252
0002a0 64 fc 83 3c c9 81 a9 3d e2 64 42 be 1f 02 76 bc
       0.01611156 0.08276708 -0.18983796 -0.015015154
0002b0 ad 5b 86 bd 67 5c 72 3e 6c 2e 44 3c b6 91 f2 3d
       -0.065604545 0.23668061 0.011973958 0.118441984
0002c0 1f 5f 10 3e 64 d2 0f 3e 02 c0 ec 3c a4 4e fc bd
       0.14098786 0.14045101 0.02890015 -0.12319687
0002d0 5a 32 e4 bc 40 da 31 be 47 e0 ea 3c 25 ee a5 bc
       -0.02785604 -0.17368412 0.028671397 -0.020255158
0002e0 a9 11 4d 3e 28 47 ca 3d 25 62 58 3e f7 60 47 be
       0.20026268 0.09876853 0.21131189 -0.19470583
0002f0 cd 4f 99 3d 77 d5 99 bd 2a 05 df bc c6 3c 1a be
       0.07485924 -0.07511418 -0.027224142 -0.15062246
000300 2d 1d 13 be 69 a6 02 3e 18 39 29 bd c1 27 ae bd
       -0.14366598 0.12758793 -0.041314214 -0.08503676
000310 ef 84 85 3e 34 59 6c bd 0a 17 34 bd 8c c9 42 be
       0.26077983 -0.05770226 -0.043967284 -0.19022197
000320 f8 1a dd 3e 26 3f 0d 3f 0a 64 a3 3d 27 5e 1d bf
       0.43184638 0.5517448 0.07978065 -0.6147179
000330 80 62 d3 bd ee 64 cc 3e f0 2f 7d 3e fb e3 3d be
       -0.10321522 0.39920753 0.24725318 -0.18543999
000340 a0 b9 a5 be 1e 07 9d be 51 da e7 bc 37 f8 c6 be
       -0.32368183 -0.30669492 -0.028302344 -0.38861248
000350 06 01 3b 3f 8d 7a 66 be 11 e0 9e bd 49 6c 30 bf
       0.73048437 -0.22507687 -0.07757581 -0.6891523
000360 73 4c e2 3e 1d fb b0 be ba 37 92 3e 12 e3 02 be
       0.4419895 -0.34566584 0.2855814 -0.12781933
000370 2e 52 ad 3e 35 15 eb 3e 51 67 82 be 2b ae dc bd
       0.3385176 0.45914617 -0.2546945 -0.107754074
000380 ad 4b d0 bd 93 2c d6 bd 5d a8 dd be 12 47 8b bd
       -0.10170684 -0.104577206 -0.43292513 -0.06800665
000390 21 73 7e 3f 7c 00 34 3e 24 f8 9e 3d b3 bb b6 be
       0.9939442 0.1757831 0.07762173 -0.35690078
0003a0 99 33 e7 3e f5 f3 29 bd 12 16 ad be 17 07 e3 3e
       0.45156553 -0.04149242 -0.338059 0.44341347
0003b0 60 5c 8e 3e 78 35 37 be 1c ff 5a 3c fa 0b 23 3e
       0.27804852 -0.1789149 0.013366487 0.15922537
0003c0 9d 1b d1 bd a0 18 1e bd 81 46 83 bd 8c a0 85 3d
       -0.10210345 -0.038597703 -0.06409932 0.065247625
0003d0 72 09 5d 3d 07 ee 4f 3e 7f 10 25 be 13 fe 8e be
       0.053964086 0.20305644 -0.16119574 -0.27928218
0003e0 17 bf e5 3d b6 4a c2 3e 49 ad 85 3d 3d 5a 41 be
       0.11218088 0.37947625 0.06527192 -0.1888208
0003f0 6a fb 90 be c7 cc 37 3e 16 90 70 3e 75 df 0e be
       -0.28316814 0.1794921 0.23492464 -0.1395243

lstm.weight_hh_l1 f4 [400, 100]
000000 b4 e2 96 bd 67 46 bb 3d cf 16 29 3d 78 8a c9 be
       -0.07367459 0.091442876 0.041281518 -0.39363456
000010 94 b0 5d bd 24 2d 9e bd 8d bf 42 bd 4e df fb bc
       -0.054123476 -0.07723454 -0.04754596 -0.030746128
000020 06 c5 16 be 72 73 36 3d 18 17 b6 bd 3f f1 71 bd
       -0.14723596 0.04454369 -0.088911235 -0.05906796
000030 29 65 29 3c d3 34 af 3e 5d c8 d1 3d 45 b1 48 3e
       0.01033906 0.3421999 0.102432944 0.19598873
000040 a3 31 ac bc 63 e4 9f bd 2f bd fe 3d 92 ed db bc
       -0.021019762 -0.07807233 0.12438428 -0.02684668
000050 90 da ad bd e4 75 16 be 3f 6d 7a be 44 1a 11 3e
       -0.08488953 -0.14693409 -0.24455737 0.14170176
000060 3e c0 36 3d 06 f5 15 3e 88 ce 85 3d 33 70 dd 3d
       0.04461693 0.1464425 0.06533533 0.10812416
000070 db 38 18 be 17 48 03 bd 6f 3a 9c 3d dc d6 d6 bd
       -0.14865439 -0.032051172 0.07628333 -0.104902
000080 7a 69 1a be 22 cf cc 3c a0 a5 02 bc ee 37 1b be
       -0.15079299 0.025001112 -0.007974058 -0.15158054
000090 b4 8c 3d 3d ea 7f 7e be 22 80 6c be dc 50 52 3d
       0.046276763 -0.24853483 -0.23095754 0.051346645
0000a0 3b fd 7f 3d 19 c9 b1 bc 17 98 d5 3b a5 05 2b be
       0.06249736 -0.021702336 0.0065183747 -0.16701372
0000b0 2c 9b 74 bd c9 f8 8d bd 55 87 cb bd 25 4d c8 bd
       -0.059718296 -0.06932218 -0.09937922 -0.09780339
0000c0 76 e4 b5 bd 13 98 d0 3d 16 f5 11 3e 6a ac 40 bd
       -0.08881466 0.10185256 0.14253649 -0.047039427
0000d0 85 f4 40 3d 50 be ab 3d 00 27 bf bd e8 a4 eb 3d
       0.047108192 0.083859086 -0.093336105 0.11506063
0000e0 b2 29 1d 3e 4e 03 0b 3e 38 13 b8 3d 10 25 85 be
       0.15347937 0.1357548 0.08988041 -0.2600484
0000f0 32 bd 15 be 27 10 de bd fe 42 47 3e 52 2e 64 3e
       -0.14622954 -0.108429246 0.19459149 0.22283295
000100 4f cc 29 be ad b4 5d be de 7b c5 bd d1 a4 3e 3e
       -0.16581844 -0.21650954 -0.096427664 0.1861756
000110 0f ef 80 bd d8 f4 9c 3d 6b d1 87 3e 07 17 cc bb
       -0.06295597 0.07663888 0.2652696 -0.006228331
000120 e2 fc d5 3d d8 b6 cf bd 20 af b6 3d 6a f5 06 be
       0.10448624 -0.101422966 0.08920121 -0.13179556
000130 04 d3 9a bd d5 a4 53 3e 6c 0a 0e bc f3 c8 e0 3d
       -0.07559779 0.20668347 -0.008669477 0.10975828
000140 64 ec 74 3b 98 5f f4 bd 22 42 97 bd ce 74 be 3d
       0.0037372345 -0.119322956 -0.07385661 0.092996225
000150 2e 5e c0 bc d8 35 5e bd e6 79 f6 bd fe 3a f4 bd
       -0.023482408 -0.05425057 -0.12034969 -0.11925314
000160 ae 22 db 3d 14 11 44 bc 7f 8a b9 3c 83 ae 0e 3d
       0.10699974 -0.011966962 0.022649048 0.034834396
000170 71 5b 4c bd 2f d1 cc bc 7b 2a 90 bc e6 18 27 bd
       -0.049891893 -0.02500209 -0.017598381 -0.04079523
000180 c1 1f 50 bd 19 19 af bd 7d f7 64 be 5c b0 12 be
       -0.050811533 -0.08549709 -0.22360034 -0.14325088
000190 86 16 a0 3c 1e 26 68 bd f1 b0 9a be 4c b9 91 bb
       0.01954199 -0.056676976 -0.3021312 -0.004447138
0001a0 53 a8 49 be 04 03 8f 3c c3 17 2b be c6 36 d9 3d
       -0.19693117 0.017457493 -0.16708283 0.1060615
0001b0 5b 59 11 bd 87 db e2 3c e8 e0 c1 bd a6 d3 1c bd
       -0.035485607 0.02769257 -0.094667256 -0.03828778
0001c0 c9 a3 37 3e 88 1c 28 3e d8 c9 08 be c9 19 95 bb
       0.17933573 0.16417134 -0.13358247 -0.004550193
0001d0 d5 17 02 3e 52 57 c0 bd b2 47 32 be ea b0 d2 3c
       0.12704404 -0.09391655 -0.17410162 0.025719125
0001e0 58 14 3b 3d 72 5a 4d bd b5 2a 6d 3d 76 e1 6e 3d
       0.0456737 -0.050135083 0.057902057 0.058320485
0001f0 06 b4 b1 3b 33 de 10 3d bd b9 15 3e c3 25 08 3d
       0.005423072 0.035368156 0.14621635 0.033239137
000200 94 1f ea bd 68 97 36 3d da a5 50 bd 37 b5 6c 3e
       -0.11431804 0.044577986 -0.05093942 0.23116003
000210 fc 4f 3b 3d ae 35 da 3d 0a ba 47 be d2 6c 68 bd
       0.045730576 0.1065477 -0.19504562 -0.056744404
000220 70 96 51 bd 1e 67 4b bd f0 fb e2 3c f2 61 9c bd
       -0.05116886 -0.049658887 0.027708024 -0.07635869
000230 7c 0f 28 3b df 8c cd bd e7 b2 36 3a 30 69 8e bd
       0.0025643995 -0.10036635 0.00069694076 -0.06953657
000240 b0 d0 85 3d 7e 0b 4e 3d 5b e9 46 3c fd d5 da bd
       0.065339446 0.05030393 0.012140597 -0.10685346
000250 04 d2 78 3d 74 c9 8b 3b 22 c9 75 3d d7 47 ff bd
       0.06074716 0.0042659584 0.06000627 -0.12464874
000260 82 04 64 be b7 bc 59 3e d3 2a 3c bd b9 95 49 3d
       -0.22267345 0.21263395 -0.045939278 0.049215052
000270 dd 83 c0 bd 87 3e 38 bc 5a cb 3f 3c 05 92 58 bd
       -0.09400151 -0.011245376 0.011706198 -0.05287363
000280 21 e7 48 3d fa aa 0a bc 8a 11 2f bd 76 05 aa bd
       0.049048547 -0.008463616 -0.042741336 -0.08301823
000290 e8 08 2e be 32 0f 04 3d 17 21 ea 3c 40 a5 c5 bd
       -0.16995585 0.032241054 0.028580232 -0.096506596
0002a0 3f c8 05 3e 2c 86 bb 3c ac e6 d6 bd 7c c6 f5 bd
       0.13064669 0.022891127 -0.10493216 -0.120007485
0002b0 53 65 c1 bd b5 76 39 3c 49 68 78 bc 01 98 3d bd
       -0.09443154 0.011319806 -0.015161582 -0.04628754
0002c0 3f 17 53 3d c6 c9 96 3e 65 c5 30 3d d1 94 1a bd
       0.05153584 0.29450816 0.043157 -0.03773958
0002d0 fa 16 b1 3d 8c b2 01 be 4c d7 17 3d 74 cb e6 bd
       0.086469606 -0.12665766 0.037070557 -0.11269274
0002e0 3d f8 76 3d 7c 4a 19 3e 71 34 01 3e 3a aa fa 3d
       0.060295332 0.1496982 0.12617661 0.122394994
0002f0 87 d3 1b 3d ec 20 11 be 01 24 74 ba 38 79 2d 3d
       0.038043525 -0.14172715 -0.00093132263 0.04235193
000300 55 ac a1 3d c1 e8 74 bd 29 bc 4f 3c a3 6d 02 3e
       0.07894198 -0.059792284 0.012679138 0.12737136
000310 99 72 a7 bd 72 3c c2 3d b8 66 59 3b 70 86 1e 3d
       -0.08176155 0.09484185 0.0033172797 0.03870243
000320 49 aa d7 bc 47 5d 13 bd 16 78 c9 3d a5 a3 3b 3e
       -0.026326315 -0.035977628 0.09837358 0.18324144
000330 0f eb e6 3e 6f 80 34 3e ef 16 e1 bd 33 a5 04 bf
       0.4510121 0.17627119 -0.10990702 -0.51814574
000340 23 49 90 3d 6f e9 2e be 80 0f 19 be ac 99 a8 3d
       0.070452 -0.17081235 -0.14947319 0.082324356
000350 8d b5 50 be e7 b1 de bd d3 57 3e 3d a9 7d a8 bd
       -0.20381756 -0.10873776 0.046470474 -0.08227093
000360 ba 10 c6 ba 69 fd 46 3d 11 93 8e 3d b9 4c 9c 3e
       -0.0015111186 0.048581515 0.069616444 0.30527285
000370 a6 02 99 bc 08 e0 c6 3e 6d 18 00 be c3 68 53 3e
       -0.01867802 0.38842797 -0.12509318 0.20645432
000380 51 f9 80 3e 38 7a b6 be 18 3a 98 be 03 d1 39 bb
       0.25190213 -0.3564012 -0.29731822 -0.002835334
000390 d8 2b d8 3e 2a 89 fe 3c c9 90 ca 3d 43 73 2b bc
       0.4222095 0.031071264 0.09890897 -0.010464492
0003a0 f9 3e 15 be c1 ce 86 3e ed 24 a6 3c 34 39 17 bd
       -0.14574803 0.26329616 0.02028128 -0.036919788
0003b0 b7 1d d5 3d 5a 78 54 be c5 95 57 bd 17 cc ab 3c
       0.10406058 -0.20749035 -0.052633066 0.020971341
0003c0 d6 76 14 be f5 7d 69 3e 71 10 00 3d 5e e3 09 3e
       -0.14498457 0.22801955 0.03126568 0.1346564
0003d0 c3 b3 6a be d2 86 76 bd 34 b2 80 bc e7 90 a2 3e
       -0.22920136 -0.06018717 -0.015709974 0.31751177
0003e0 7f 18 8c bd 0a db 68 be 99 2f 89 3d 0f 50 95 be
       -0.0684061 -0.22739807 0.06698532 -0.29162642
0003f0 de 43 26 3e ea 30 67 be 13 67 27 be a1 ae 41 be
       0.16236827 -0.22577253 -0.16347913 -0.18914272

lstm.bias_ih_l1 f4 [400]
000000 97 bb 98 3c a0 59 bd bc 30 ff 91 3e 49 3d 33 be
       0.018644137 -0.023114026 0.28515005 -0.17503847
000010 ba 8f 62 be 9d 79 7e 3d f0 68 1e be 1a e8 73 bd
       -0.2212514 0.0621277 -0.15469718 -0.05954752
000020 cc d5 eb 3c a5 a8 6e be 35 ca 4a be 60 12 16 bd
       0.02878847 -0.2330652 -0.19803698 -0.036638618
000030 be 4a a8 bc 15 ae 46 3d 00 b8 70 3d 70 d6 7a bd
       -0.020543452 0.04850586 0.058769226 -0.06123966
000040 a2 3e e7 3d 65 69 32 3e 2e dd 78 3d 13 af a0 3d
       0.11291243 0.17423017 0.06075781 0.07845893
000050 6b 1b c5 bd 41 b2 db 3d 6e 9c 5e bd 27 39 47 3d
       -0.0962437 0.107273586 -0.0543484 0.04863849
000060 89 4a 74 bd f8 49 7d 3e 0d 7d 91 3d 45 be 57 3d
       -0.059641395 0.24735248 0.0710393 0.05267169
000070 7b 3d 04 be e2 68 08 bd ba fb 8a 3c 35 40 b9 3c
       -0.12914078 -0.03330315 0.016965736 0.022613624
000080 43 a6 09 3d 00 12 be 3d 02 d1 84 be fc 80 17 be
       0.033605825 0.09280777 -0.2594071 -0.14795297
000090 c4 3c bb 3e d0 7a 8a bd 3d bb 0b be 33 fb cd 3d
       0.36569798 -0.06761706 -0.13645644 0.10057678
0000a0 41 82 04 3d 7c 0a 25 bb da 83 29 3d c0 8d 43 3e
       0.032350782 -0.002518325 0.04138551 0.19097042
0000b0 e8 0b 95 bd ca e8 78 bc 5b 63 8f 3d 23 9c b1 bd
       -0.072776616 -0.01519222 0.070013724 -0.08672359
0000c0 b8 88 06 3e a3 1f 60 3d c3 6b 86 3b f8 3d ba 3d
       0.13138092 0.05471767 0.0041022017 0.09093851
0000d0 27 54 18 bd 68 2c 00 3c 63 51 40 3e 5e 88 db 3c
       -0.03718963 0.007823087 0.18781047 0.026798423
0000e0 6d 7d a7 bd f3 14 63 3d 64 59 8a bc 28 23 16 3d
       -0.0817822 0.0554399 -0.016888328 0.03665462
0000f0 9b d6 ad bd be a3 60 bb a4 4d 6b bd 95 1f 6f 3d
       -0.08488198 -0.0034277285 -0.05744709 0.05837973
000100 37 51 b0 bd 59 cb 85 bc 46 1c 83 bd 45 41 87 bd
       -0.086092405 -0.016332315 -0.06401877 -0.06604246
000110 1a 7c 6a 3e aa 8f 5c bd fd 00 96 bd 3c 20 6a bd
       0.22898903 -0.053847946 -0.07324407 -0.057159647
000120 9a 1a d3 3d 75 c0 f8 3d 54 26 92 bd 45 69 0c bd
       0.10307808 0.12146083 -0.07136217 -0.03428008
000130 76 c2 a3 3c 9c 94 dc bd f0 46 a9 bd 72 af 63 bc
       0.019990187 -0.107705325 -0.082654834 -0.01389681
000140 3c ba 1e 3e 16 72 83 3e f6 d8 39 3c 34 f5 ce 3d
       0.1550073 0.25672978 0.011343231 0.101053625
000150 dc 7f 8e bd 7d e1 dd 3d ad a9 80 3e a6 bc 0d 3e
       -0.06957981 0.10834024 0.25129452 0.13841495
000160 e1 b6 71 3c a0 6a 6d 3e 2d 67 09 be 05 8a 03 be
       0.014753074 0.23185205 -0.13418265 -0.12845619
000170 3e e3 c9 3d e4 5b e7 3d 8d 5f 3d 3d c4 8b d6 39
       0.09857796 0.112968236 0.046233702 0.00040921394
000180 90 9b 87 3d 08 8b a5 3b 0b b3 6a 3d 12 72 d6 3c
       0.06621468 0.005051974 0.057299655 0.02617744
000190 aa d1 75 bd bf fb 07 3e 27 cf 8f 3d d1 39 40 3c
       -0.060014404 0.13279627 0.07021933 0.0117325345
0001a0 71 7a bb 3c 67 55 c2 bd bd 02 29 be a6 2f 6a bc
       0.022885533 -0.094889455 -0.16504951 -0.014293587
0001b0 7c df 6e bd e6 f5 06 be 49 6d a4 bc 2d 60 6c bd
       -0.0583186 -0.1317974 -0.020071642 -0.057708908
0001c0 20 ca c1 3d 06 8d 79 3b 43 63 a2 3b 1b 07 52 3e
       0.094623804 0.0038078441 0.0049556806 0.20510523
0001d0 4a ea 78 3d f0 7f 6f bd cb b5 a8 3d bf e1 0f 3e
       0.06077031 -0.05847162 0.08237799 0.14050959
0001e0 df b3 d3 3d 28 ab 2b 3e 9a 5e e9 bb 47 c7 45 bd
       0.10337042 0.1676451 -0.007121873 -0.04828575
0001f0 27 ac 40 3e 56 27 b9 3c 86 cf 0d 3e ac 77 22 3e
       0.18815671 0.022601765 0.13848695 0.15865964
000200 28 e6 f7 bd fd 92 03 3e d7 ca c4 3d 6e af 96 bc
       -0.12104446 0.1284904 0.09609001 -0.018394198
000210 60 83 e3 3c a8 48 e9 bd ce 49 92 3e b2 e0 d2 bd
       0.027772605 -0.11390811 0.28571934 -0.102967635
000220 b4 6a 23 3d 08 f9 9f 3c 29 82 c4 bc e5 8f 4c 3e
       0.039896682 0.019527927 -0.023987846 0.19976766
000230 ed be ca 3d b3 0f ab 3d e8 05 31 3e ad 85 25 bb
       0.098996975 0.08352604 0.1728741 -0.002525668
000240 17 92 59 3e ec b2 05 bd 2a 8c 5d 3e ec c3 b2 3d
       0.21247135 -0.032641336 0.216355 0.087287754
000250 28 23 88 3e 65 a8 4c 3c 54 b2 fa 3d 62 06 56 3e
       0.26589322 0.01249132 0.12241045 0.20900872
000260 79 08 f4 3c d5 c9 90 3d e4 04 9e bd 89 39 09 3e
       0.029789196 0.070697464 -0.077157766 0.13400854
000270 bf 2d 3a 3e 29 f1 83 3e ab 53 80 bd ce ea a3 bd
       0.18181513 0.25769928 -0.062659584 -0.0800377
000280 65 a7 50 3d db 37 9f 3c 31 57 2a 3e 1c 43 88 bd
       0.05094089 0.019435814 0.16634823 -0.06653425
000290 f9 87 97 3e 8a 45 f1 3d 24 36 d0 bd 53 72 f6 3d
       0.29595926 0.11780842 -0.101665765 0.12033524
0002a0 5d cd d7 3d 07 f6 9c 3e d5 c5 40 bc 62 9e ce 3c
       0.10537217 0.30656454 -0.011765917 0.025222007
0002b0 84 73 c0 3d 66 fb bb bd 8f 9f 21 bd 1d 7b 39 3c
       0.09397033 -0.0917881 -0.039458808 0.011320856
0002c0 03 c8 a6 bc e8 a4 99 3e c7 e5 06 3d 0c f1 48 3e
       -0.020359045 0.30008626 0.032933977 0.19623202
0002d0 e7 ff c4 bc 33 a8 c1 3c 9b 64 84 3d 4d 8a 90 3d
       -0.024047805 0.023639774 0.064645015 0.07057629
0002e0 36 61 51 3d d5 0f 25 bd e0 62 70 3d 60 14 0d 3d
       0.0511181 -0.0402983 0.058688045 0.03444326
0002f0 ab 69 dd bd a7 e4 af 3e ae 1a f2 3c b8 18 ca bd
       -0.1081117 0.34354135 0.029553737 -0.09867996
000300 8d c7 0d 3d 80 51 a2 bc 9b f8 88 3d b5 30 a6 3d
       0.034614135 -0.019814253 0.06688043 0.08114759
000310 e2 45 3f 3e 90 46 8e 3d 85 e9 a6 3d 1f 5c 45 3e
       0.18679002 0.069470525 0.08150009 0.19273423
000320 bb 7e 59 3d 5e 1e 60 bd 80 d8 e4 bd 0f d5 90 bd
       0.053099375 -0.05471646 -0.111741066 -0.07071888
000330 a5 c9 d0 3b 86 4a d7 3b 42 70 fb 3c f2 a2 46 3d
       0.006371694 0.006570163 0.030693177 0.04849524
000340 13 f0 78 3d 34 7d 9e bd 4d cd e2 3d 0f be 12 be
       0.060775828 -0.07738724 0.11074314 -0.14330314
000350 5c c7 d3 3d 44 73 25 be 81 1c 17 bc 38 e9 6e 3d
       0.10340759 -0.16157252 -0.009223104 0.058327883
000360 a2 1d 9f bc 97 10 c8 3c 14 65 68 be a8 20 df bd
       -0.01942331 0.024421973 -0.22694808 -0.108949006
000370 ba 6e 9b 3d 24 45 15 be 91 43 85 3d b8 5f 09 bd
       0.07589479 -0.14577156 0.06507028 -0.03353855
000380 48 e6 36 3d d8 49 0e 3e 6c 20 3f 3a 59 96 e0 3d
       0.044653207 0.13895357 0.0007290903 0.109661765
000390 e5 bf 41 bb e9 74 b2 3d bd 7c 5e 3d 18 bd 11 bd
       -0.002956384 0.08713705 0.05431818 -0.035580724
0003a0 46 45 f9 3d 32 84 4e bc ec 1b 5c bd 75 c7 02 3e
       0.12171416 -0.01260476 -0.053737566 0.127714
0003b0 55 2c f9 3d e2 3e a3 3c 55 59 8a 3d e2 51 18 be
       0.12166659 0.019927446 0.0675532 -0.14874986
0003c0 c8 b6 1a be 0b a6 17 3c ac 72 62 bd 65 5e 81 3d
       -0.15108788 0.009255896 -0.05528514 0.063168325
0003d0 2d 6a 03 3d 9f 38 97 3d 05 7e d5 3b 28 b3 a1 bd
       0.03208368 0.073838465 0.006515267 -0.078954995
0003e0 06 ba 43 3e 12 aa 76 3d ac e2 63 3d de 62 d7 bc
       0.19113931 0.060220785 0.055636093 -0.02629226
0003f0 3d e6 bf bd c0 71 d3 3d 27 1a 27 3c ec b7 f1 bc
       -0.09370086 0.103244305 0.010199106 -0.029506646
